{"keras_version": "2.0.0", "config": {"name": "resnet50", "layers": [{"name": "input_19", "config": {"name": "input_19", "dtype": "float32", "batch_input_shape": [null, null, null, 3], "sparse": false}, "inbound_nodes": [], "class_name": "InputLayer"}, {"name": "zero_padding2d_19", "config": {"name": "zero_padding2d_19", "data_format": "channels_last", "padding": [[3, 3], [3, 3]], "trainable": true}, "inbound_nodes": [[["input_19", 0, 0, {}]]], "class_name": "ZeroPadding2D"}, {"name": "conv1", "config": {"filters": 64, "kernel_size": [7, 7], "trainable": true, "data_format": "channels_last", "dilation_rate": [1, 1], "bias_constraint": null, "activation": "linear", "strides": [2, 2], "bias_initializer": {"config": {"seed": null, "mode": "fan_avg", "scale": 1.0, "distribution": "uniform"}, "class_name": "VarianceScaling"}, "kernel_constraint": null, "kernel_initializer": {"config": {"seed": null, "mode": "fan_avg", "scale": 1.0, "distribution": "uniform"}, "class_name": "VarianceScaling"}, "padding": "valid", "use_bias": true, "name": "conv1", "bias_regularizer": null, "kernel_regularizer": null, "activity_regularizer": null}, "inbound_nodes": [[["zero_padding2d_19", 0, 0, {}]]], "class_name": "Conv2D"}, {"name": "bn_conv1", "config": {"momentum": 0.99, "gamma_constraint": null, "trainable": true, "beta_initializer": {"config": {}, "class_name": "Zeros"}, "axis": 3, "center": true, "beta_regularizer": null, "epsilon": 0.001, "scale": true, "moving_mean_initializer": {"config": {}, "class_name": "Zeros"}, "gamma_regularizer": null, "name": "bn_conv1", "beta_constraint": null, "gamma_initializer": {"config": {}, "class_name": "Ones"}, "moving_variance_initializer": {"config": {}, "class_name": "Ones"}}, "inbound_nodes": [[["conv1", 0, 0, {}]]], "class_name": "BatchNormalization"}, {"name": "activation_923", "config": {"name": "activation_923", "activation": "relu", "trainable": true}, "inbound_nodes": [[["bn_conv1", 0, 0, {}]]], "class_name": "Activation"}, {"name": "max_pooling2d_49", "config": {"pool_size": [3, 3], "data_format": "channels_last", "padding": "valid", "trainable": true, "name": "max_pooling2d_49", "strides": [2, 2]}, "inbound_nodes": [[["activation_923", 0, 0, {}]]], "class_name": "MaxPooling2D"}, {"name": "res2a_branch2a", "config": {"filters": 64, "kernel_size": [1, 1], "trainable": true, "data_format": "channels_last", "dilation_rate": [1, 1], "bias_constraint": null, "activation": "linear", "strides": [1, 1], "bias_initializer": {"config": {"seed": null, "mode": "fan_avg", "scale": 1.0, "distribution": "uniform"}, "class_name": "VarianceScaling"}, "kernel_constraint": null, "kernel_initializer": {"config": {"seed": null, "mode": "fan_avg", "scale": 1.0, "distribution": "uniform"}, "class_name": "VarianceScaling"}, "padding": "valid", "use_bias": true, "name": "res2a_branch2a", "bias_regularizer": null, "kernel_regularizer": null, "activity_regularizer": null}, "inbound_nodes": [[["max_pooling2d_49", 0, 0, {}]]], "class_name": "Conv2D"}, {"name": "bn2a_branch2a", "config": {"momentum": 0.99, "gamma_constraint": null, "trainable": true, "beta_initializer": {"config": {}, "class_name": "Zeros"}, "axis": 3, "center": true, "beta_regularizer": null, "epsilon": 0.001, "scale": true, "moving_mean_initializer": {"config": {}, "class_name": "Zeros"}, "gamma_regularizer": null, "name": "bn2a_branch2a", "beta_constraint": null, "gamma_initializer": {"config": {}, "class_name": "Ones"}, "moving_variance_initializer": {"config": {}, "class_name": "Ones"}}, "inbound_nodes": [[["res2a_branch2a", 0, 0, {}]]], "class_name": "BatchNormalization"}, {"name": "activation_924", "config": {"name": "activation_924", "activation": "relu", "trainable": true}, "inbound_nodes": [[["bn2a_branch2a", 0, 0, {}]]], "class_name": "Activation"}, {"name": "res2a_branch2b", "config": {"filters": 64, "kernel_size": [3, 3], "trainable": true, "data_format": "channels_last", "dilation_rate": [1, 1], "bias_constraint": null, "activation": "linear", "strides": [1, 1], "bias_initializer": {"config": {"seed": null, "mode": "fan_avg", "scale": 1.0, "distribution": "uniform"}, "class_name": "VarianceScaling"}, "kernel_constraint": null, "kernel_initializer": {"config": {"seed": null, "mode": "fan_avg", "scale": 1.0, "distribution": "uniform"}, "class_name": "VarianceScaling"}, "padding": "same", "use_bias": true, "name": "res2a_branch2b", "bias_regularizer": null, "kernel_regularizer": null, "activity_regularizer": null}, "inbound_nodes": [[["activation_924", 0, 0, {}]]], "class_name": "Conv2D"}, {"name": "bn2a_branch2b", "config": {"momentum": 0.99, "gamma_constraint": null, "trainable": true, "beta_initializer": {"config": {}, "class_name": "Zeros"}, "axis": 3, "center": true, "beta_regularizer": null, "epsilon": 0.001, "scale": true, "moving_mean_initializer": {"config": {}, "class_name": "Zeros"}, "gamma_regularizer": null, "name": "bn2a_branch2b", "beta_constraint": null, "gamma_initializer": {"config": {}, "class_name": "Ones"}, "moving_variance_initializer": {"config": {}, "class_name": "Ones"}}, "inbound_nodes": [[["res2a_branch2b", 0, 0, {}]]], "class_name": "BatchNormalization"}, {"name": "activation_925", "config": {"name": "activation_925", "activation": "relu", "trainable": true}, "inbound_nodes": [[["bn2a_branch2b", 0, 0, {}]]], "class_name": "Activation"}, {"name": "res2a_branch2c", "config": {"filters": 256, "kernel_size": [1, 1], "trainable": true, "data_format": "channels_last", "dilation_rate": [1, 1], "bias_constraint": null, "activation": "linear", "strides": [1, 1], "bias_initializer": {"config": {"seed": null, "mode": "fan_avg", "scale": 1.0, "distribution": "uniform"}, "class_name": "VarianceScaling"}, "kernel_constraint": null, "kernel_initializer": {"config": {"seed": null, "mode": "fan_avg", "scale": 1.0, "distribution": "uniform"}, "class_name": "VarianceScaling"}, "padding": "valid", "use_bias": true, "name": "res2a_branch2c", "bias_regularizer": null, "kernel_regularizer": null, "activity_regularizer": null}, "inbound_nodes": [[["activation_925", 0, 0, {}]]], "class_name": "Conv2D"}, {"name": "res2a_branch1", "config": {"filters": 256, "kernel_size": [1, 1], "trainable": true, "data_format": "channels_last", "dilation_rate": [1, 1], "bias_constraint": null, "activation": "linear", "strides": [1, 1], "bias_initializer": {"config": {"seed": null, "mode": "fan_avg", "scale": 1.0, "distribution": "uniform"}, "class_name": "VarianceScaling"}, "kernel_constraint": null, "kernel_initializer": {"config": {"seed": null, "mode": "fan_avg", "scale": 1.0, "distribution": "uniform"}, "class_name": "VarianceScaling"}, "padding": "valid", "use_bias": true, "name": "res2a_branch1", "bias_regularizer": null, "kernel_regularizer": null, "activity_regularizer": null}, "inbound_nodes": [[["max_pooling2d_49", 0, 0, {}]]], "class_name": "Conv2D"}, {"name": "bn2a_branch2c", "config": {"momentum": 0.99, "gamma_constraint": null, "trainable": true, "beta_initializer": {"config": {}, "class_name": "Zeros"}, "axis": 3, "center": true, "beta_regularizer": null, "epsilon": 0.001, "scale": true, "moving_mean_initializer": {"config": {}, "class_name": "Zeros"}, "gamma_regularizer": null, "name": "bn2a_branch2c", "beta_constraint": null, "gamma_initializer": {"config": {}, "class_name": "Ones"}, "moving_variance_initializer": {"config": {}, "class_name": "Ones"}}, "inbound_nodes": [[["res2a_branch2c", 0, 0, {}]]], "class_name": "BatchNormalization"}, {"name": "bn2a_branch1", "config": {"momentum": 0.99, "gamma_constraint": null, "trainable": true, "beta_initializer": {"config": {}, "class_name": "Zeros"}, "axis": 3, "center": true, "beta_regularizer": null, "epsilon": 0.001, "scale": true, "moving_mean_initializer": {"config": {}, "class_name": "Zeros"}, "gamma_regularizer": null, "name": "bn2a_branch1", "beta_constraint": null, "gamma_initializer": {"config": {}, "class_name": "Ones"}, "moving_variance_initializer": {"config": {}, "class_name": "Ones"}}, "inbound_nodes": [[["res2a_branch1", 0, 0, {}]]], "class_name": "BatchNormalization"}, {"name": "add_289", "config": {"name": "add_289", "trainable": true}, "inbound_nodes": [[["bn2a_branch2c", 0, 0, {}], ["bn2a_branch1", 0, 0, {}]]], "class_name": "Add"}, {"name": "activation_926", "config": {"name": "activation_926", "activation": "relu", "trainable": true}, "inbound_nodes": [[["add_289", 0, 0, {}]]], "class_name": "Activation"}, {"name": "res2b_branch2a", "config": {"filters": 64, "kernel_size": [1, 1], "trainable": true, "data_format": "channels_last", "dilation_rate": [1, 1], "bias_constraint": null, "activation": "linear", "strides": [1, 1], "bias_initializer": {"config": {"seed": null, "mode": "fan_avg", "scale": 1.0, "distribution": "uniform"}, "class_name": "VarianceScaling"}, "kernel_constraint": null, "kernel_initializer": {"config": {"seed": null, "mode": "fan_avg", "scale": 1.0, "distribution": "uniform"}, "class_name": "VarianceScaling"}, "padding": "valid", "use_bias": true, "name": "res2b_branch2a", "bias_regularizer": null, "kernel_regularizer": null, "activity_regularizer": null}, "inbound_nodes": [[["activation_926", 0, 0, {}]]], "class_name": "Conv2D"}, {"name": "bn2b_branch2a", "config": {"momentum": 0.99, "gamma_constraint": null, "trainable": true, "beta_initializer": {"config": {}, "class_name": "Zeros"}, "axis": 3, "center": true, "beta_regularizer": null, "epsilon": 0.001, "scale": true, "moving_mean_initializer": {"config": {}, "class_name": "Zeros"}, "gamma_regularizer": null, "name": "bn2b_branch2a", "beta_constraint": null, "gamma_initializer": {"config": {}, "class_name": "Ones"}, "moving_variance_initializer": {"config": {}, "class_name": "Ones"}}, "inbound_nodes": [[["res2b_branch2a", 0, 0, {}]]], "class_name": "BatchNormalization"}, {"name": "activation_927", "config": {"name": "activation_927", "activation": "relu", "trainable": true}, "inbound_nodes": [[["bn2b_branch2a", 0, 0, {}]]], "class_name": "Activation"}, {"name": "res2b_branch2b", "config": {"filters": 64, "kernel_size": [3, 3], "trainable": true, "data_format": "channels_last", "dilation_rate": [1, 1], "bias_constraint": null, "activation": "linear", "strides": [1, 1], "bias_initializer": {"config": {"seed": null, "mode": "fan_avg", "scale": 1.0, "distribution": "uniform"}, "class_name": "VarianceScaling"}, "kernel_constraint": null, "kernel_initializer": {"config": {"seed": null, "mode": "fan_avg", "scale": 1.0, "distribution": "uniform"}, "class_name": "VarianceScaling"}, "padding": "same", "use_bias": true, "name": "res2b_branch2b", "bias_regularizer": null, "kernel_regularizer": null, "activity_regularizer": null}, "inbound_nodes": [[["activation_927", 0, 0, {}]]], "class_name": "Conv2D"}, {"name": "bn2b_branch2b", "config": {"momentum": 0.99, "gamma_constraint": null, "trainable": true, "beta_initializer": {"config": {}, "class_name": "Zeros"}, "axis": 3, "center": true, "beta_regularizer": null, "epsilon": 0.001, "scale": true, "moving_mean_initializer": {"config": {}, "class_name": "Zeros"}, "gamma_regularizer": null, "name": "bn2b_branch2b", "beta_constraint": null, "gamma_initializer": {"config": {}, "class_name": "Ones"}, "moving_variance_initializer": {"config": {}, "class_name": "Ones"}}, "inbound_nodes": [[["res2b_branch2b", 0, 0, {}]]], "class_name": "BatchNormalization"}, {"name": "activation_928", "config": {"name": "activation_928", "activation": "relu", "trainable": true}, "inbound_nodes": [[["bn2b_branch2b", 0, 0, {}]]], "class_name": "Activation"}, {"name": "res2b_branch2c", "config": {"filters": 256, "kernel_size": [1, 1], "trainable": true, "data_format": "channels_last", "dilation_rate": [1, 1], "bias_constraint": null, "activation": "linear", "strides": [1, 1], "bias_initializer": {"config": {"seed": null, "mode": "fan_avg", "scale": 1.0, "distribution": "uniform"}, "class_name": "VarianceScaling"}, "kernel_constraint": null, "kernel_initializer": {"config": {"seed": null, "mode": "fan_avg", "scale": 1.0, "distribution": "uniform"}, "class_name": "VarianceScaling"}, "padding": "valid", "use_bias": true, "name": "res2b_branch2c", "bias_regularizer": null, "kernel_regularizer": null, "activity_regularizer": null}, "inbound_nodes": [[["activation_928", 0, 0, {}]]], "class_name": "Conv2D"}, {"name": "bn2b_branch2c", "config": {"momentum": 0.99, "gamma_constraint": null, "trainable": true, "beta_initializer": {"config": {}, "class_name": "Zeros"}, "axis": 3, "center": true, "beta_regularizer": null, "epsilon": 0.001, "scale": true, "moving_mean_initializer": {"config": {}, "class_name": "Zeros"}, "gamma_regularizer": null, "name": "bn2b_branch2c", "beta_constraint": null, "gamma_initializer": {"config": {}, "class_name": "Ones"}, "moving_variance_initializer": {"config": {}, "class_name": "Ones"}}, "inbound_nodes": [[["res2b_branch2c", 0, 0, {}]]], "class_name": "BatchNormalization"}, {"name": "add_290", "config": {"name": "add_290", "trainable": true}, "inbound_nodes": [[["bn2b_branch2c", 0, 0, {}], ["activation_926", 0, 0, {}]]], "class_name": "Add"}, {"name": "activation_929", "config": {"name": "activation_929", "activation": "relu", "trainable": true}, "inbound_nodes": [[["add_290", 0, 0, {}]]], "class_name": "Activation"}, {"name": "res2c_branch2a", "config": {"filters": 64, "kernel_size": [1, 1], "trainable": true, "data_format": "channels_last", "dilation_rate": [1, 1], "bias_constraint": null, "activation": "linear", "strides": [1, 1], "bias_initializer": {"config": {"seed": null, "mode": "fan_avg", "scale": 1.0, "distribution": "uniform"}, "class_name": "VarianceScaling"}, "kernel_constraint": null, "kernel_initializer": {"config": {"seed": null, "mode": "fan_avg", "scale": 1.0, "distribution": "uniform"}, "class_name": "VarianceScaling"}, "padding": "valid", "use_bias": true, "name": "res2c_branch2a", "bias_regularizer": null, "kernel_regularizer": null, "activity_regularizer": null}, "inbound_nodes": [[["activation_929", 0, 0, {}]]], "class_name": "Conv2D"}, {"name": "bn2c_branch2a", "config": {"momentum": 0.99, "gamma_constraint": null, "trainable": true, "beta_initializer": {"config": {}, "class_name": "Zeros"}, "axis": 3, "center": true, "beta_regularizer": null, "epsilon": 0.001, "scale": true, "moving_mean_initializer": {"config": {}, "class_name": "Zeros"}, "gamma_regularizer": null, "name": "bn2c_branch2a", "beta_constraint": null, "gamma_initializer": {"config": {}, "class_name": "Ones"}, "moving_variance_initializer": {"config": {}, "class_name": "Ones"}}, "inbound_nodes": [[["res2c_branch2a", 0, 0, {}]]], "class_name": "BatchNormalization"}, {"name": "activation_930", "config": {"name": "activation_930", "activation": "relu", "trainable": true}, "inbound_nodes": [[["bn2c_branch2a", 0, 0, {}]]], "class_name": "Activation"}, {"name": "res2c_branch2b", "config": {"filters": 64, "kernel_size": [3, 3], "trainable": true, "data_format": "channels_last", "dilation_rate": [1, 1], "bias_constraint": null, "activation": "linear", "strides": [1, 1], "bias_initializer": {"config": {"seed": null, "mode": "fan_avg", "scale": 1.0, "distribution": "uniform"}, "class_name": "VarianceScaling"}, "kernel_constraint": null, "kernel_initializer": {"config": {"seed": null, "mode": "fan_avg", "scale": 1.0, "distribution": "uniform"}, "class_name": "VarianceScaling"}, "padding": "same", "use_bias": true, "name": "res2c_branch2b", "bias_regularizer": null, "kernel_regularizer": null, "activity_regularizer": null}, "inbound_nodes": [[["activation_930", 0, 0, {}]]], "class_name": "Conv2D"}, {"name": "bn2c_branch2b", "config": {"momentum": 0.99, "gamma_constraint": null, "trainable": true, "beta_initializer": {"config": {}, "class_name": "Zeros"}, "axis": 3, "center": true, "beta_regularizer": null, "epsilon": 0.001, "scale": true, "moving_mean_initializer": {"config": {}, "class_name": "Zeros"}, "gamma_regularizer": null, "name": "bn2c_branch2b", "beta_constraint": null, "gamma_initializer": {"config": {}, "class_name": "Ones"}, "moving_variance_initializer": {"config": {}, "class_name": "Ones"}}, "inbound_nodes": [[["res2c_branch2b", 0, 0, {}]]], "class_name": "BatchNormalization"}, {"name": "activation_931", "config": {"name": "activation_931", "activation": "relu", "trainable": true}, "inbound_nodes": [[["bn2c_branch2b", 0, 0, {}]]], "class_name": "Activation"}, {"name": "res2c_branch2c", "config": {"filters": 256, "kernel_size": [1, 1], "trainable": true, "data_format": "channels_last", "dilation_rate": [1, 1], "bias_constraint": null, "activation": "linear", "strides": [1, 1], "bias_initializer": {"config": {"seed": null, "mode": "fan_avg", "scale": 1.0, "distribution": "uniform"}, "class_name": "VarianceScaling"}, "kernel_constraint": null, "kernel_initializer": {"config": {"seed": null, "mode": "fan_avg", "scale": 1.0, "distribution": "uniform"}, "class_name": "VarianceScaling"}, "padding": "valid", "use_bias": true, "name": "res2c_branch2c", "bias_regularizer": null, "kernel_regularizer": null, "activity_regularizer": null}, "inbound_nodes": [[["activation_931", 0, 0, {}]]], "class_name": "Conv2D"}, {"name": "bn2c_branch2c", "config": {"momentum": 0.99, "gamma_constraint": null, "trainable": true, "beta_initializer": {"config": {}, "class_name": "Zeros"}, "axis": 3, "center": true, "beta_regularizer": null, "epsilon": 0.001, "scale": true, "moving_mean_initializer": {"config": {}, "class_name": "Zeros"}, "gamma_regularizer": null, "name": "bn2c_branch2c", "beta_constraint": null, "gamma_initializer": {"config": {}, "class_name": "Ones"}, "moving_variance_initializer": {"config": {}, "class_name": "Ones"}}, "inbound_nodes": [[["res2c_branch2c", 0, 0, {}]]], "class_name": "BatchNormalization"}, {"name": "add_291", "config": {"name": "add_291", "trainable": true}, "inbound_nodes": [[["bn2c_branch2c", 0, 0, {}], ["activation_929", 0, 0, {}]]], "class_name": "Add"}, {"name": "activation_932", "config": {"name": "activation_932", "activation": "relu", "trainable": true}, "inbound_nodes": [[["add_291", 0, 0, {}]]], "class_name": "Activation"}, {"name": "res3a_branch2a", "config": {"filters": 128, "kernel_size": [1, 1], "trainable": true, "data_format": "channels_last", "dilation_rate": [1, 1], "bias_constraint": null, "activation": "linear", "strides": [2, 2], "bias_initializer": {"config": {"seed": null, "mode": "fan_avg", "scale": 1.0, "distribution": "uniform"}, "class_name": "VarianceScaling"}, "kernel_constraint": null, "kernel_initializer": {"config": {"seed": null, "mode": "fan_avg", "scale": 1.0, "distribution": "uniform"}, "class_name": "VarianceScaling"}, "padding": "valid", "use_bias": true, "name": "res3a_branch2a", "bias_regularizer": null, "kernel_regularizer": null, "activity_regularizer": null}, "inbound_nodes": [[["activation_932", 0, 0, {}]]], "class_name": "Conv2D"}, {"name": "bn3a_branch2a", "config": {"momentum": 0.99, "gamma_constraint": null, "trainable": true, "beta_initializer": {"config": {}, "class_name": "Zeros"}, "axis": 3, "center": true, "beta_regularizer": null, "epsilon": 0.001, "scale": true, "moving_mean_initializer": {"config": {}, "class_name": "Zeros"}, "gamma_regularizer": null, "name": "bn3a_branch2a", "beta_constraint": null, "gamma_initializer": {"config": {}, "class_name": "Ones"}, "moving_variance_initializer": {"config": {}, "class_name": "Ones"}}, "inbound_nodes": [[["res3a_branch2a", 0, 0, {}]]], "class_name": "BatchNormalization"}, {"name": "activation_933", "config": {"name": "activation_933", "activation": "relu", "trainable": true}, "inbound_nodes": [[["bn3a_branch2a", 0, 0, {}]]], "class_name": "Activation"}, {"name": "res3a_branch2b", "config": {"filters": 128, "kernel_size": [3, 3], "trainable": true, "data_format": "channels_last", "dilation_rate": [1, 1], "bias_constraint": null, "activation": "linear", "strides": [1, 1], "bias_initializer": {"config": {"seed": null, "mode": "fan_avg", "scale": 1.0, "distribution": "uniform"}, "class_name": "VarianceScaling"}, "kernel_constraint": null, "kernel_initializer": {"config": {"seed": null, "mode": "fan_avg", "scale": 1.0, "distribution": "uniform"}, "class_name": "VarianceScaling"}, "padding": "same", "use_bias": true, "name": "res3a_branch2b", "bias_regularizer": null, "kernel_regularizer": null, "activity_regularizer": null}, "inbound_nodes": [[["activation_933", 0, 0, {}]]], "class_name": "Conv2D"}, {"name": "bn3a_branch2b", "config": {"momentum": 0.99, "gamma_constraint": null, "trainable": true, "beta_initializer": {"config": {}, "class_name": "Zeros"}, "axis": 3, "center": true, "beta_regularizer": null, "epsilon": 0.001, "scale": true, "moving_mean_initializer": {"config": {}, "class_name": "Zeros"}, "gamma_regularizer": null, "name": "bn3a_branch2b", "beta_constraint": null, "gamma_initializer": {"config": {}, "class_name": "Ones"}, "moving_variance_initializer": {"config": {}, "class_name": "Ones"}}, "inbound_nodes": [[["res3a_branch2b", 0, 0, {}]]], "class_name": "BatchNormalization"}, {"name": "activation_934", "config": {"name": "activation_934", "activation": "relu", "trainable": true}, "inbound_nodes": [[["bn3a_branch2b", 0, 0, {}]]], "class_name": "Activation"}, {"name": "res3a_branch2c", "config": {"filters": 512, "kernel_size": [1, 1], "trainable": true, "data_format": "channels_last", "dilation_rate": [1, 1], "bias_constraint": null, "activation": "linear", "strides": [1, 1], "bias_initializer": {"config": {"seed": null, "mode": "fan_avg", "scale": 1.0, "distribution": "uniform"}, "class_name": "VarianceScaling"}, "kernel_constraint": null, "kernel_initializer": {"config": {"seed": null, "mode": "fan_avg", "scale": 1.0, "distribution": "uniform"}, "class_name": "VarianceScaling"}, "padding": "valid", "use_bias": true, "name": "res3a_branch2c", "bias_regularizer": null, "kernel_regularizer": null, "activity_regularizer": null}, "inbound_nodes": [[["activation_934", 0, 0, {}]]], "class_name": "Conv2D"}, {"name": "res3a_branch1", "config": {"filters": 512, "kernel_size": [1, 1], "trainable": true, "data_format": "channels_last", "dilation_rate": [1, 1], "bias_constraint": null, "activation": "linear", "strides": [2, 2], "bias_initializer": {"config": {"seed": null, "mode": "fan_avg", "scale": 1.0, "distribution": "uniform"}, "class_name": "VarianceScaling"}, "kernel_constraint": null, "kernel_initializer": {"config": {"seed": null, "mode": "fan_avg", "scale": 1.0, "distribution": "uniform"}, "class_name": "VarianceScaling"}, "padding": "valid", "use_bias": true, "name": "res3a_branch1", "bias_regularizer": null, "kernel_regularizer": null, "activity_regularizer": null}, "inbound_nodes": [[["activation_932", 0, 0, {}]]], "class_name": "Conv2D"}, {"name": "bn3a_branch2c", "config": {"momentum": 0.99, "gamma_constraint": null, "trainable": true, "beta_initializer": {"config": {}, "class_name": "Zeros"}, "axis": 3, "center": true, "beta_regularizer": null, "epsilon": 0.001, "scale": true, "moving_mean_initializer": {"config": {}, "class_name": "Zeros"}, "gamma_regularizer": null, "name": "bn3a_branch2c", "beta_constraint": null, "gamma_initializer": {"config": {}, "class_name": "Ones"}, "moving_variance_initializer": {"config": {}, "class_name": "Ones"}}, "inbound_nodes": [[["res3a_branch2c", 0, 0, {}]]], "class_name": "BatchNormalization"}, {"name": "bn3a_branch1", "config": {"momentum": 0.99, "gamma_constraint": null, "trainable": true, "beta_initializer": {"config": {}, "class_name": "Zeros"}, "axis": 3, "center": true, "beta_regularizer": null, "epsilon": 0.001, "scale": true, "moving_mean_initializer": {"config": {}, "class_name": "Zeros"}, "gamma_regularizer": null, "name": "bn3a_branch1", "beta_constraint": null, "gamma_initializer": {"config": {}, "class_name": "Ones"}, "moving_variance_initializer": {"config": {}, "class_name": "Ones"}}, "inbound_nodes": [[["res3a_branch1", 0, 0, {}]]], "class_name": "BatchNormalization"}, {"name": "add_292", "config": {"name": "add_292", "trainable": true}, "inbound_nodes": [[["bn3a_branch2c", 0, 0, {}], ["bn3a_branch1", 0, 0, {}]]], "class_name": "Add"}, {"name": "activation_935", "config": {"name": "activation_935", "activation": "relu", "trainable": true}, "inbound_nodes": [[["add_292", 0, 0, {}]]], "class_name": "Activation"}, {"name": "res3b_branch2a", "config": {"filters": 128, "kernel_size": [1, 1], "trainable": true, "data_format": "channels_last", "dilation_rate": [1, 1], "bias_constraint": null, "activation": "linear", "strides": [1, 1], "bias_initializer": {"config": {"seed": null, "mode": "fan_avg", "scale": 1.0, "distribution": "uniform"}, "class_name": "VarianceScaling"}, "kernel_constraint": null, "kernel_initializer": {"config": {"seed": null, "mode": "fan_avg", "scale": 1.0, "distribution": "uniform"}, "class_name": "VarianceScaling"}, "padding": "valid", "use_bias": true, "name": "res3b_branch2a", "bias_regularizer": null, "kernel_regularizer": null, "activity_regularizer": null}, "inbound_nodes": [[["activation_935", 0, 0, {}]]], "class_name": "Conv2D"}, {"name": "bn3b_branch2a", "config": {"momentum": 0.99, "gamma_constraint": null, "trainable": true, "beta_initializer": {"config": {}, "class_name": "Zeros"}, "axis": 3, "center": true, "beta_regularizer": null, "epsilon": 0.001, "scale": true, "moving_mean_initializer": {"config": {}, "class_name": "Zeros"}, "gamma_regularizer": null, "name": "bn3b_branch2a", "beta_constraint": null, "gamma_initializer": {"config": {}, "class_name": "Ones"}, "moving_variance_initializer": {"config": {}, "class_name": "Ones"}}, "inbound_nodes": [[["res3b_branch2a", 0, 0, {}]]], "class_name": "BatchNormalization"}, {"name": "activation_936", "config": {"name": "activation_936", "activation": "relu", "trainable": true}, "inbound_nodes": [[["bn3b_branch2a", 0, 0, {}]]], "class_name": "Activation"}, {"name": "res3b_branch2b", "config": {"filters": 128, "kernel_size": [3, 3], "trainable": true, "data_format": "channels_last", "dilation_rate": [1, 1], "bias_constraint": null, "activation": "linear", "strides": [1, 1], "bias_initializer": {"config": {"seed": null, "mode": "fan_avg", "scale": 1.0, "distribution": "uniform"}, "class_name": "VarianceScaling"}, "kernel_constraint": null, "kernel_initializer": {"config": {"seed": null, "mode": "fan_avg", "scale": 1.0, "distribution": "uniform"}, "class_name": "VarianceScaling"}, "padding": "same", "use_bias": true, "name": "res3b_branch2b", "bias_regularizer": null, "kernel_regularizer": null, "activity_regularizer": null}, "inbound_nodes": [[["activation_936", 0, 0, {}]]], "class_name": "Conv2D"}, {"name": "bn3b_branch2b", "config": {"momentum": 0.99, "gamma_constraint": null, "trainable": true, "beta_initializer": {"config": {}, "class_name": "Zeros"}, "axis": 3, "center": true, "beta_regularizer": null, "epsilon": 0.001, "scale": true, "moving_mean_initializer": {"config": {}, "class_name": "Zeros"}, "gamma_regularizer": null, "name": "bn3b_branch2b", "beta_constraint": null, "gamma_initializer": {"config": {}, "class_name": "Ones"}, "moving_variance_initializer": {"config": {}, "class_name": "Ones"}}, "inbound_nodes": [[["res3b_branch2b", 0, 0, {}]]], "class_name": "BatchNormalization"}, {"name": "activation_937", "config": {"name": "activation_937", "activation": "relu", "trainable": true}, "inbound_nodes": [[["bn3b_branch2b", 0, 0, {}]]], "class_name": "Activation"}, {"name": "res3b_branch2c", "config": {"filters": 512, "kernel_size": [1, 1], "trainable": true, "data_format": "channels_last", "dilation_rate": [1, 1], "bias_constraint": null, "activation": "linear", "strides": [1, 1], "bias_initializer": {"config": {"seed": null, "mode": "fan_avg", "scale": 1.0, "distribution": "uniform"}, "class_name": "VarianceScaling"}, "kernel_constraint": null, "kernel_initializer": {"config": {"seed": null, "mode": "fan_avg", "scale": 1.0, "distribution": "uniform"}, "class_name": "VarianceScaling"}, "padding": "valid", "use_bias": true, "name": "res3b_branch2c", "bias_regularizer": null, "kernel_regularizer": null, "activity_regularizer": null}, "inbound_nodes": [[["activation_937", 0, 0, {}]]], "class_name": "Conv2D"}, {"name": "bn3b_branch2c", "config": {"momentum": 0.99, "gamma_constraint": null, "trainable": true, "beta_initializer": {"config": {}, "class_name": "Zeros"}, "axis": 3, "center": true, "beta_regularizer": null, "epsilon": 0.001, "scale": true, "moving_mean_initializer": {"config": {}, "class_name": "Zeros"}, "gamma_regularizer": null, "name": "bn3b_branch2c", "beta_constraint": null, "gamma_initializer": {"config": {}, "class_name": "Ones"}, "moving_variance_initializer": {"config": {}, "class_name": "Ones"}}, "inbound_nodes": [[["res3b_branch2c", 0, 0, {}]]], "class_name": "BatchNormalization"}, {"name": "add_293", "config": {"name": "add_293", "trainable": true}, "inbound_nodes": [[["bn3b_branch2c", 0, 0, {}], ["activation_935", 0, 0, {}]]], "class_name": "Add"}, {"name": "activation_938", "config": {"name": "activation_938", "activation": "relu", "trainable": true}, "inbound_nodes": [[["add_293", 0, 0, {}]]], "class_name": "Activation"}, {"name": "res3c_branch2a", "config": {"filters": 128, "kernel_size": [1, 1], "trainable": true, "data_format": "channels_last", "dilation_rate": [1, 1], "bias_constraint": null, "activation": "linear", "strides": [1, 1], "bias_initializer": {"config": {"seed": null, "mode": "fan_avg", "scale": 1.0, "distribution": "uniform"}, "class_name": "VarianceScaling"}, "kernel_constraint": null, "kernel_initializer": {"config": {"seed": null, "mode": "fan_avg", "scale": 1.0, "distribution": "uniform"}, "class_name": "VarianceScaling"}, "padding": "valid", "use_bias": true, "name": "res3c_branch2a", "bias_regularizer": null, "kernel_regularizer": null, "activity_regularizer": null}, "inbound_nodes": [[["activation_938", 0, 0, {}]]], "class_name": "Conv2D"}, {"name": "bn3c_branch2a", "config": {"momentum": 0.99, "gamma_constraint": null, "trainable": true, "beta_initializer": {"config": {}, "class_name": "Zeros"}, "axis": 3, "center": true, "beta_regularizer": null, "epsilon": 0.001, "scale": true, "moving_mean_initializer": {"config": {}, "class_name": "Zeros"}, "gamma_regularizer": null, "name": "bn3c_branch2a", "beta_constraint": null, "gamma_initializer": {"config": {}, "class_name": "Ones"}, "moving_variance_initializer": {"config": {}, "class_name": "Ones"}}, "inbound_nodes": [[["res3c_branch2a", 0, 0, {}]]], "class_name": "BatchNormalization"}, {"name": "activation_939", "config": {"name": "activation_939", "activation": "relu", "trainable": true}, "inbound_nodes": [[["bn3c_branch2a", 0, 0, {}]]], "class_name": "Activation"}, {"name": "res3c_branch2b", "config": {"filters": 128, "kernel_size": [3, 3], "trainable": true, "data_format": "channels_last", "dilation_rate": [1, 1], "bias_constraint": null, "activation": "linear", "strides": [1, 1], "bias_initializer": {"config": {"seed": null, "mode": "fan_avg", "scale": 1.0, "distribution": "uniform"}, "class_name": "VarianceScaling"}, "kernel_constraint": null, "kernel_initializer": {"config": {"seed": null, "mode": "fan_avg", "scale": 1.0, "distribution": "uniform"}, "class_name": "VarianceScaling"}, "padding": "same", "use_bias": true, "name": "res3c_branch2b", "bias_regularizer": null, "kernel_regularizer": null, "activity_regularizer": null}, "inbound_nodes": [[["activation_939", 0, 0, {}]]], "class_name": "Conv2D"}, {"name": "bn3c_branch2b", "config": {"momentum": 0.99, "gamma_constraint": null, "trainable": true, "beta_initializer": {"config": {}, "class_name": "Zeros"}, "axis": 3, "center": true, "beta_regularizer": null, "epsilon": 0.001, "scale": true, "moving_mean_initializer": {"config": {}, "class_name": "Zeros"}, "gamma_regularizer": null, "name": "bn3c_branch2b", "beta_constraint": null, "gamma_initializer": {"config": {}, "class_name": "Ones"}, "moving_variance_initializer": {"config": {}, "class_name": "Ones"}}, "inbound_nodes": [[["res3c_branch2b", 0, 0, {}]]], "class_name": "BatchNormalization"}, {"name": "activation_940", "config": {"name": "activation_940", "activation": "relu", "trainable": true}, "inbound_nodes": [[["bn3c_branch2b", 0, 0, {}]]], "class_name": "Activation"}, {"name": "res3c_branch2c", "config": {"filters": 512, "kernel_size": [1, 1], "trainable": true, "data_format": "channels_last", "dilation_rate": [1, 1], "bias_constraint": null, "activation": "linear", "strides": [1, 1], "bias_initializer": {"config": {"seed": null, "mode": "fan_avg", "scale": 1.0, "distribution": "uniform"}, "class_name": "VarianceScaling"}, "kernel_constraint": null, "kernel_initializer": {"config": {"seed": null, "mode": "fan_avg", "scale": 1.0, "distribution": "uniform"}, "class_name": "VarianceScaling"}, "padding": "valid", "use_bias": true, "name": "res3c_branch2c", "bias_regularizer": null, "kernel_regularizer": null, "activity_regularizer": null}, "inbound_nodes": [[["activation_940", 0, 0, {}]]], "class_name": "Conv2D"}, {"name": "bn3c_branch2c", "config": {"momentum": 0.99, "gamma_constraint": null, "trainable": true, "beta_initializer": {"config": {}, "class_name": "Zeros"}, "axis": 3, "center": true, "beta_regularizer": null, "epsilon": 0.001, "scale": true, "moving_mean_initializer": {"config": {}, "class_name": "Zeros"}, "gamma_regularizer": null, "name": "bn3c_branch2c", "beta_constraint": null, "gamma_initializer": {"config": {}, "class_name": "Ones"}, "moving_variance_initializer": {"config": {}, "class_name": "Ones"}}, "inbound_nodes": [[["res3c_branch2c", 0, 0, {}]]], "class_name": "BatchNormalization"}, {"name": "add_294", "config": {"name": "add_294", "trainable": true}, "inbound_nodes": [[["bn3c_branch2c", 0, 0, {}], ["activation_938", 0, 0, {}]]], "class_name": "Add"}, {"name": "activation_941", "config": {"name": "activation_941", "activation": "relu", "trainable": true}, "inbound_nodes": [[["add_294", 0, 0, {}]]], "class_name": "Activation"}, {"name": "res3d_branch2a", "config": {"filters": 128, "kernel_size": [1, 1], "trainable": true, "data_format": "channels_last", "dilation_rate": [1, 1], "bias_constraint": null, "activation": "linear", "strides": [1, 1], "bias_initializer": {"config": {"seed": null, "mode": "fan_avg", "scale": 1.0, "distribution": "uniform"}, "class_name": "VarianceScaling"}, "kernel_constraint": null, "kernel_initializer": {"config": {"seed": null, "mode": "fan_avg", "scale": 1.0, "distribution": "uniform"}, "class_name": "VarianceScaling"}, "padding": "valid", "use_bias": true, "name": "res3d_branch2a", "bias_regularizer": null, "kernel_regularizer": null, "activity_regularizer": null}, "inbound_nodes": [[["activation_941", 0, 0, {}]]], "class_name": "Conv2D"}, {"name": "bn3d_branch2a", "config": {"momentum": 0.99, "gamma_constraint": null, "trainable": true, "beta_initializer": {"config": {}, "class_name": "Zeros"}, "axis": 3, "center": true, "beta_regularizer": null, "epsilon": 0.001, "scale": true, "moving_mean_initializer": {"config": {}, "class_name": "Zeros"}, "gamma_regularizer": null, "name": "bn3d_branch2a", "beta_constraint": null, "gamma_initializer": {"config": {}, "class_name": "Ones"}, "moving_variance_initializer": {"config": {}, "class_name": "Ones"}}, "inbound_nodes": [[["res3d_branch2a", 0, 0, {}]]], "class_name": "BatchNormalization"}, {"name": "activation_942", "config": {"name": "activation_942", "activation": "relu", "trainable": true}, "inbound_nodes": [[["bn3d_branch2a", 0, 0, {}]]], "class_name": "Activation"}, {"name": "res3d_branch2b", "config": {"filters": 128, "kernel_size": [3, 3], "trainable": true, "data_format": "channels_last", "dilation_rate": [1, 1], "bias_constraint": null, "activation": "linear", "strides": [1, 1], "bias_initializer": {"config": {"seed": null, "mode": "fan_avg", "scale": 1.0, "distribution": "uniform"}, "class_name": "VarianceScaling"}, "kernel_constraint": null, "kernel_initializer": {"config": {"seed": null, "mode": "fan_avg", "scale": 1.0, "distribution": "uniform"}, "class_name": "VarianceScaling"}, "padding": "same", "use_bias": true, "name": "res3d_branch2b", "bias_regularizer": null, "kernel_regularizer": null, "activity_regularizer": null}, "inbound_nodes": [[["activation_942", 0, 0, {}]]], "class_name": "Conv2D"}, {"name": "bn3d_branch2b", "config": {"momentum": 0.99, "gamma_constraint": null, "trainable": true, "beta_initializer": {"config": {}, "class_name": "Zeros"}, "axis": 3, "center": true, "beta_regularizer": null, "epsilon": 0.001, "scale": true, "moving_mean_initializer": {"config": {}, "class_name": "Zeros"}, "gamma_regularizer": null, "name": "bn3d_branch2b", "beta_constraint": null, "gamma_initializer": {"config": {}, "class_name": "Ones"}, "moving_variance_initializer": {"config": {}, "class_name": "Ones"}}, "inbound_nodes": [[["res3d_branch2b", 0, 0, {}]]], "class_name": "BatchNormalization"}, {"name": "activation_943", "config": {"name": "activation_943", "activation": "relu", "trainable": true}, "inbound_nodes": [[["bn3d_branch2b", 0, 0, {}]]], "class_name": "Activation"}, {"name": "res3d_branch2c", "config": {"filters": 512, "kernel_size": [1, 1], "trainable": true, "data_format": "channels_last", "dilation_rate": [1, 1], "bias_constraint": null, "activation": "linear", "strides": [1, 1], "bias_initializer": {"config": {"seed": null, "mode": "fan_avg", "scale": 1.0, "distribution": "uniform"}, "class_name": "VarianceScaling"}, "kernel_constraint": null, "kernel_initializer": {"config": {"seed": null, "mode": "fan_avg", "scale": 1.0, "distribution": "uniform"}, "class_name": "VarianceScaling"}, "padding": "valid", "use_bias": true, "name": "res3d_branch2c", "bias_regularizer": null, "kernel_regularizer": null, "activity_regularizer": null}, "inbound_nodes": [[["activation_943", 0, 0, {}]]], "class_name": "Conv2D"}, {"name": "bn3d_branch2c", "config": {"momentum": 0.99, "gamma_constraint": null, "trainable": true, "beta_initializer": {"config": {}, "class_name": "Zeros"}, "axis": 3, "center": true, "beta_regularizer": null, "epsilon": 0.001, "scale": true, "moving_mean_initializer": {"config": {}, "class_name": "Zeros"}, "gamma_regularizer": null, "name": "bn3d_branch2c", "beta_constraint": null, "gamma_initializer": {"config": {}, "class_name": "Ones"}, "moving_variance_initializer": {"config": {}, "class_name": "Ones"}}, "inbound_nodes": [[["res3d_branch2c", 0, 0, {}]]], "class_name": "BatchNormalization"}, {"name": "add_295", "config": {"name": "add_295", "trainable": true}, "inbound_nodes": [[["bn3d_branch2c", 0, 0, {}], ["activation_941", 0, 0, {}]]], "class_name": "Add"}, {"name": "activation_944", "config": {"name": "activation_944", "activation": "relu", "trainable": true}, "inbound_nodes": [[["add_295", 0, 0, {}]]], "class_name": "Activation"}, {"name": "res4a_branch2a", "config": {"filters": 256, "kernel_size": [1, 1], "trainable": true, "data_format": "channels_last", "dilation_rate": [1, 1], "bias_constraint": null, "activation": "linear", "strides": [2, 2], "bias_initializer": {"config": {"seed": null, "mode": "fan_avg", "scale": 1.0, "distribution": "uniform"}, "class_name": "VarianceScaling"}, "kernel_constraint": null, "kernel_initializer": {"config": {"seed": null, "mode": "fan_avg", "scale": 1.0, "distribution": "uniform"}, "class_name": "VarianceScaling"}, "padding": "valid", "use_bias": true, "name": "res4a_branch2a", "bias_regularizer": null, "kernel_regularizer": null, "activity_regularizer": null}, "inbound_nodes": [[["activation_944", 0, 0, {}]]], "class_name": "Conv2D"}, {"name": "bn4a_branch2a", "config": {"momentum": 0.99, "gamma_constraint": null, "trainable": true, "beta_initializer": {"config": {}, "class_name": "Zeros"}, "axis": 3, "center": true, "beta_regularizer": null, "epsilon": 0.001, "scale": true, "moving_mean_initializer": {"config": {}, "class_name": "Zeros"}, "gamma_regularizer": null, "name": "bn4a_branch2a", "beta_constraint": null, "gamma_initializer": {"config": {}, "class_name": "Ones"}, "moving_variance_initializer": {"config": {}, "class_name": "Ones"}}, "inbound_nodes": [[["res4a_branch2a", 0, 0, {}]]], "class_name": "BatchNormalization"}, {"name": "activation_945", "config": {"name": "activation_945", "activation": "relu", "trainable": true}, "inbound_nodes": [[["bn4a_branch2a", 0, 0, {}]]], "class_name": "Activation"}, {"name": "res4a_branch2b", "config": {"filters": 256, "kernel_size": [3, 3], "trainable": true, "data_format": "channels_last", "dilation_rate": [1, 1], "bias_constraint": null, "activation": "linear", "strides": [1, 1], "bias_initializer": {"config": {"seed": null, "mode": "fan_avg", "scale": 1.0, "distribution": "uniform"}, "class_name": "VarianceScaling"}, "kernel_constraint": null, "kernel_initializer": {"config": {"seed": null, "mode": "fan_avg", "scale": 1.0, "distribution": "uniform"}, "class_name": "VarianceScaling"}, "padding": "same", "use_bias": true, "name": "res4a_branch2b", "bias_regularizer": null, "kernel_regularizer": null, "activity_regularizer": null}, "inbound_nodes": [[["activation_945", 0, 0, {}]]], "class_name": "Conv2D"}, {"name": "bn4a_branch2b", "config": {"momentum": 0.99, "gamma_constraint": null, "trainable": true, "beta_initializer": {"config": {}, "class_name": "Zeros"}, "axis": 3, "center": true, "beta_regularizer": null, "epsilon": 0.001, "scale": true, "moving_mean_initializer": {"config": {}, "class_name": "Zeros"}, "gamma_regularizer": null, "name": "bn4a_branch2b", "beta_constraint": null, "gamma_initializer": {"config": {}, "class_name": "Ones"}, "moving_variance_initializer": {"config": {}, "class_name": "Ones"}}, "inbound_nodes": [[["res4a_branch2b", 0, 0, {}]]], "class_name": "BatchNormalization"}, {"name": "activation_946", "config": {"name": "activation_946", "activation": "relu", "trainable": true}, "inbound_nodes": [[["bn4a_branch2b", 0, 0, {}]]], "class_name": "Activation"}, {"name": "res4a_branch2c", "config": {"filters": 1024, "kernel_size": [1, 1], "trainable": true, "data_format": "channels_last", "dilation_rate": [1, 1], "bias_constraint": null, "activation": "linear", "strides": [1, 1], "bias_initializer": {"config": {"seed": null, "mode": "fan_avg", "scale": 1.0, "distribution": "uniform"}, "class_name": "VarianceScaling"}, "kernel_constraint": null, "kernel_initializer": {"config": {"seed": null, "mode": "fan_avg", "scale": 1.0, "distribution": "uniform"}, "class_name": "VarianceScaling"}, "padding": "valid", "use_bias": true, "name": "res4a_branch2c", "bias_regularizer": null, "kernel_regularizer": null, "activity_regularizer": null}, "inbound_nodes": [[["activation_946", 0, 0, {}]]], "class_name": "Conv2D"}, {"name": "res4a_branch1", "config": {"filters": 1024, "kernel_size": [1, 1], "trainable": true, "data_format": "channels_last", "dilation_rate": [1, 1], "bias_constraint": null, "activation": "linear", "strides": [2, 2], "bias_initializer": {"config": {"seed": null, "mode": "fan_avg", "scale": 1.0, "distribution": "uniform"}, "class_name": "VarianceScaling"}, "kernel_constraint": null, "kernel_initializer": {"config": {"seed": null, "mode": "fan_avg", "scale": 1.0, "distribution": "uniform"}, "class_name": "VarianceScaling"}, "padding": "valid", "use_bias": true, "name": "res4a_branch1", "bias_regularizer": null, "kernel_regularizer": null, "activity_regularizer": null}, "inbound_nodes": [[["activation_944", 0, 0, {}]]], "class_name": "Conv2D"}, {"name": "bn4a_branch2c", "config": {"momentum": 0.99, "gamma_constraint": null, "trainable": true, "beta_initializer": {"config": {}, "class_name": "Zeros"}, "axis": 3, "center": true, "beta_regularizer": null, "epsilon": 0.001, "scale": true, "moving_mean_initializer": {"config": {}, "class_name": "Zeros"}, "gamma_regularizer": null, "name": "bn4a_branch2c", "beta_constraint": null, "gamma_initializer": {"config": {}, "class_name": "Ones"}, "moving_variance_initializer": {"config": {}, "class_name": "Ones"}}, "inbound_nodes": [[["res4a_branch2c", 0, 0, {}]]], "class_name": "BatchNormalization"}, {"name": "bn4a_branch1", "config": {"momentum": 0.99, "gamma_constraint": null, "trainable": true, "beta_initializer": {"config": {}, "class_name": "Zeros"}, "axis": 3, "center": true, "beta_regularizer": null, "epsilon": 0.001, "scale": true, "moving_mean_initializer": {"config": {}, "class_name": "Zeros"}, "gamma_regularizer": null, "name": "bn4a_branch1", "beta_constraint": null, "gamma_initializer": {"config": {}, "class_name": "Ones"}, "moving_variance_initializer": {"config": {}, "class_name": "Ones"}}, "inbound_nodes": [[["res4a_branch1", 0, 0, {}]]], "class_name": "BatchNormalization"}, {"name": "add_296", "config": {"name": "add_296", "trainable": true}, "inbound_nodes": [[["bn4a_branch2c", 0, 0, {}], ["bn4a_branch1", 0, 0, {}]]], "class_name": "Add"}, {"name": "activation_947", "config": {"name": "activation_947", "activation": "relu", "trainable": true}, "inbound_nodes": [[["add_296", 0, 0, {}]]], "class_name": "Activation"}, {"name": "res4b_branch2a", "config": {"filters": 256, "kernel_size": [1, 1], "trainable": true, "data_format": "channels_last", "dilation_rate": [1, 1], "bias_constraint": null, "activation": "linear", "strides": [1, 1], "bias_initializer": {"config": {"seed": null, "mode": "fan_avg", "scale": 1.0, "distribution": "uniform"}, "class_name": "VarianceScaling"}, "kernel_constraint": null, "kernel_initializer": {"config": {"seed": null, "mode": "fan_avg", "scale": 1.0, "distribution": "uniform"}, "class_name": "VarianceScaling"}, "padding": "valid", "use_bias": true, "name": "res4b_branch2a", "bias_regularizer": null, "kernel_regularizer": null, "activity_regularizer": null}, "inbound_nodes": [[["activation_947", 0, 0, {}]]], "class_name": "Conv2D"}, {"name": "bn4b_branch2a", "config": {"momentum": 0.99, "gamma_constraint": null, "trainable": true, "beta_initializer": {"config": {}, "class_name": "Zeros"}, "axis": 3, "center": true, "beta_regularizer": null, "epsilon": 0.001, "scale": true, "moving_mean_initializer": {"config": {}, "class_name": "Zeros"}, "gamma_regularizer": null, "name": "bn4b_branch2a", "beta_constraint": null, "gamma_initializer": {"config": {}, "class_name": "Ones"}, "moving_variance_initializer": {"config": {}, "class_name": "Ones"}}, "inbound_nodes": [[["res4b_branch2a", 0, 0, {}]]], "class_name": "BatchNormalization"}, {"name": "activation_948", "config": {"name": "activation_948", "activation": "relu", "trainable": true}, "inbound_nodes": [[["bn4b_branch2a", 0, 0, {}]]], "class_name": "Activation"}, {"name": "res4b_branch2b", "config": {"filters": 256, "kernel_size": [3, 3], "trainable": true, "data_format": "channels_last", "dilation_rate": [1, 1], "bias_constraint": null, "activation": "linear", "strides": [1, 1], "bias_initializer": {"config": {"seed": null, "mode": "fan_avg", "scale": 1.0, "distribution": "uniform"}, "class_name": "VarianceScaling"}, "kernel_constraint": null, "kernel_initializer": {"config": {"seed": null, "mode": "fan_avg", "scale": 1.0, "distribution": "uniform"}, "class_name": "VarianceScaling"}, "padding": "same", "use_bias": true, "name": "res4b_branch2b", "bias_regularizer": null, "kernel_regularizer": null, "activity_regularizer": null}, "inbound_nodes": [[["activation_948", 0, 0, {}]]], "class_name": "Conv2D"}, {"name": "bn4b_branch2b", "config": {"momentum": 0.99, "gamma_constraint": null, "trainable": true, "beta_initializer": {"config": {}, "class_name": "Zeros"}, "axis": 3, "center": true, "beta_regularizer": null, "epsilon": 0.001, "scale": true, "moving_mean_initializer": {"config": {}, "class_name": "Zeros"}, "gamma_regularizer": null, "name": "bn4b_branch2b", "beta_constraint": null, "gamma_initializer": {"config": {}, "class_name": "Ones"}, "moving_variance_initializer": {"config": {}, "class_name": "Ones"}}, "inbound_nodes": [[["res4b_branch2b", 0, 0, {}]]], "class_name": "BatchNormalization"}, {"name": "activation_949", "config": {"name": "activation_949", "activation": "relu", "trainable": true}, "inbound_nodes": [[["bn4b_branch2b", 0, 0, {}]]], "class_name": "Activation"}, {"name": "res4b_branch2c", "config": {"filters": 1024, "kernel_size": [1, 1], "trainable": true, "data_format": "channels_last", "dilation_rate": [1, 1], "bias_constraint": null, "activation": "linear", "strides": [1, 1], "bias_initializer": {"config": {"seed": null, "mode": "fan_avg", "scale": 1.0, "distribution": "uniform"}, "class_name": "VarianceScaling"}, "kernel_constraint": null, "kernel_initializer": {"config": {"seed": null, "mode": "fan_avg", "scale": 1.0, "distribution": "uniform"}, "class_name": "VarianceScaling"}, "padding": "valid", "use_bias": true, "name": "res4b_branch2c", "bias_regularizer": null, "kernel_regularizer": null, "activity_regularizer": null}, "inbound_nodes": [[["activation_949", 0, 0, {}]]], "class_name": "Conv2D"}, {"name": "bn4b_branch2c", "config": {"momentum": 0.99, "gamma_constraint": null, "trainable": true, "beta_initializer": {"config": {}, "class_name": "Zeros"}, "axis": 3, "center": true, "beta_regularizer": null, "epsilon": 0.001, "scale": true, "moving_mean_initializer": {"config": {}, "class_name": "Zeros"}, "gamma_regularizer": null, "name": "bn4b_branch2c", "beta_constraint": null, "gamma_initializer": {"config": {}, "class_name": "Ones"}, "moving_variance_initializer": {"config": {}, "class_name": "Ones"}}, "inbound_nodes": [[["res4b_branch2c", 0, 0, {}]]], "class_name": "BatchNormalization"}, {"name": "add_297", "config": {"name": "add_297", "trainable": true}, "inbound_nodes": [[["bn4b_branch2c", 0, 0, {}], ["activation_947", 0, 0, {}]]], "class_name": "Add"}, {"name": "activation_950", "config": {"name": "activation_950", "activation": "relu", "trainable": true}, "inbound_nodes": [[["add_297", 0, 0, {}]]], "class_name": "Activation"}, {"name": "res4c_branch2a", "config": {"filters": 256, "kernel_size": [1, 1], "trainable": true, "data_format": "channels_last", "dilation_rate": [1, 1], "bias_constraint": null, "activation": "linear", "strides": [1, 1], "bias_initializer": {"config": {"seed": null, "mode": "fan_avg", "scale": 1.0, "distribution": "uniform"}, "class_name": "VarianceScaling"}, "kernel_constraint": null, "kernel_initializer": {"config": {"seed": null, "mode": "fan_avg", "scale": 1.0, "distribution": "uniform"}, "class_name": "VarianceScaling"}, "padding": "valid", "use_bias": true, "name": "res4c_branch2a", "bias_regularizer": null, "kernel_regularizer": null, "activity_regularizer": null}, "inbound_nodes": [[["activation_950", 0, 0, {}]]], "class_name": "Conv2D"}, {"name": "bn4c_branch2a", "config": {"momentum": 0.99, "gamma_constraint": null, "trainable": true, "beta_initializer": {"config": {}, "class_name": "Zeros"}, "axis": 3, "center": true, "beta_regularizer": null, "epsilon": 0.001, "scale": true, "moving_mean_initializer": {"config": {}, "class_name": "Zeros"}, "gamma_regularizer": null, "name": "bn4c_branch2a", "beta_constraint": null, "gamma_initializer": {"config": {}, "class_name": "Ones"}, "moving_variance_initializer": {"config": {}, "class_name": "Ones"}}, "inbound_nodes": [[["res4c_branch2a", 0, 0, {}]]], "class_name": "BatchNormalization"}, {"name": "activation_951", "config": {"name": "activation_951", "activation": "relu", "trainable": true}, "inbound_nodes": [[["bn4c_branch2a", 0, 0, {}]]], "class_name": "Activation"}, {"name": "res4c_branch2b", "config": {"filters": 256, "kernel_size": [3, 3], "trainable": true, "data_format": "channels_last", "dilation_rate": [1, 1], "bias_constraint": null, "activation": "linear", "strides": [1, 1], "bias_initializer": {"config": {"seed": null, "mode": "fan_avg", "scale": 1.0, "distribution": "uniform"}, "class_name": "VarianceScaling"}, "kernel_constraint": null, "kernel_initializer": {"config": {"seed": null, "mode": "fan_avg", "scale": 1.0, "distribution": "uniform"}, "class_name": "VarianceScaling"}, "padding": "same", "use_bias": true, "name": "res4c_branch2b", "bias_regularizer": null, "kernel_regularizer": null, "activity_regularizer": null}, "inbound_nodes": [[["activation_951", 0, 0, {}]]], "class_name": "Conv2D"}, {"name": "bn4c_branch2b", "config": {"momentum": 0.99, "gamma_constraint": null, "trainable": true, "beta_initializer": {"config": {}, "class_name": "Zeros"}, "axis": 3, "center": true, "beta_regularizer": null, "epsilon": 0.001, "scale": true, "moving_mean_initializer": {"config": {}, "class_name": "Zeros"}, "gamma_regularizer": null, "name": "bn4c_branch2b", "beta_constraint": null, "gamma_initializer": {"config": {}, "class_name": "Ones"}, "moving_variance_initializer": {"config": {}, "class_name": "Ones"}}, "inbound_nodes": [[["res4c_branch2b", 0, 0, {}]]], "class_name": "BatchNormalization"}, {"name": "activation_952", "config": {"name": "activation_952", "activation": "relu", "trainable": true}, "inbound_nodes": [[["bn4c_branch2b", 0, 0, {}]]], "class_name": "Activation"}, {"name": "res4c_branch2c", "config": {"filters": 1024, "kernel_size": [1, 1], "trainable": true, "data_format": "channels_last", "dilation_rate": [1, 1], "bias_constraint": null, "activation": "linear", "strides": [1, 1], "bias_initializer": {"config": {"seed": null, "mode": "fan_avg", "scale": 1.0, "distribution": "uniform"}, "class_name": "VarianceScaling"}, "kernel_constraint": null, "kernel_initializer": {"config": {"seed": null, "mode": "fan_avg", "scale": 1.0, "distribution": "uniform"}, "class_name": "VarianceScaling"}, "padding": "valid", "use_bias": true, "name": "res4c_branch2c", "bias_regularizer": null, "kernel_regularizer": null, "activity_regularizer": null}, "inbound_nodes": [[["activation_952", 0, 0, {}]]], "class_name": "Conv2D"}, {"name": "bn4c_branch2c", "config": {"momentum": 0.99, "gamma_constraint": null, "trainable": true, "beta_initializer": {"config": {}, "class_name": "Zeros"}, "axis": 3, "center": true, "beta_regularizer": null, "epsilon": 0.001, "scale": true, "moving_mean_initializer": {"config": {}, "class_name": "Zeros"}, "gamma_regularizer": null, "name": "bn4c_branch2c", "beta_constraint": null, "gamma_initializer": {"config": {}, "class_name": "Ones"}, "moving_variance_initializer": {"config": {}, "class_name": "Ones"}}, "inbound_nodes": [[["res4c_branch2c", 0, 0, {}]]], "class_name": "BatchNormalization"}, {"name": "add_298", "config": {"name": "add_298", "trainable": true}, "inbound_nodes": [[["bn4c_branch2c", 0, 0, {}], ["activation_950", 0, 0, {}]]], "class_name": "Add"}, {"name": "activation_953", "config": {"name": "activation_953", "activation": "relu", "trainable": true}, "inbound_nodes": [[["add_298", 0, 0, {}]]], "class_name": "Activation"}, {"name": "res4d_branch2a", "config": {"filters": 256, "kernel_size": [1, 1], "trainable": true, "data_format": "channels_last", "dilation_rate": [1, 1], "bias_constraint": null, "activation": "linear", "strides": [1, 1], "bias_initializer": {"config": {"seed": null, "mode": "fan_avg", "scale": 1.0, "distribution": "uniform"}, "class_name": "VarianceScaling"}, "kernel_constraint": null, "kernel_initializer": {"config": {"seed": null, "mode": "fan_avg", "scale": 1.0, "distribution": "uniform"}, "class_name": "VarianceScaling"}, "padding": "valid", "use_bias": true, "name": "res4d_branch2a", "bias_regularizer": null, "kernel_regularizer": null, "activity_regularizer": null}, "inbound_nodes": [[["activation_953", 0, 0, {}]]], "class_name": "Conv2D"}, {"name": "bn4d_branch2a", "config": {"momentum": 0.99, "gamma_constraint": null, "trainable": true, "beta_initializer": {"config": {}, "class_name": "Zeros"}, "axis": 3, "center": true, "beta_regularizer": null, "epsilon": 0.001, "scale": true, "moving_mean_initializer": {"config": {}, "class_name": "Zeros"}, "gamma_regularizer": null, "name": "bn4d_branch2a", "beta_constraint": null, "gamma_initializer": {"config": {}, "class_name": "Ones"}, "moving_variance_initializer": {"config": {}, "class_name": "Ones"}}, "inbound_nodes": [[["res4d_branch2a", 0, 0, {}]]], "class_name": "BatchNormalization"}, {"name": "activation_954", "config": {"name": "activation_954", "activation": "relu", "trainable": true}, "inbound_nodes": [[["bn4d_branch2a", 0, 0, {}]]], "class_name": "Activation"}, {"name": "res4d_branch2b", "config": {"filters": 256, "kernel_size": [3, 3], "trainable": true, "data_format": "channels_last", "dilation_rate": [1, 1], "bias_constraint": null, "activation": "linear", "strides": [1, 1], "bias_initializer": {"config": {"seed": null, "mode": "fan_avg", "scale": 1.0, "distribution": "uniform"}, "class_name": "VarianceScaling"}, "kernel_constraint": null, "kernel_initializer": {"config": {"seed": null, "mode": "fan_avg", "scale": 1.0, "distribution": "uniform"}, "class_name": "VarianceScaling"}, "padding": "same", "use_bias": true, "name": "res4d_branch2b", "bias_regularizer": null, "kernel_regularizer": null, "activity_regularizer": null}, "inbound_nodes": [[["activation_954", 0, 0, {}]]], "class_name": "Conv2D"}, {"name": "bn4d_branch2b", "config": {"momentum": 0.99, "gamma_constraint": null, "trainable": true, "beta_initializer": {"config": {}, "class_name": "Zeros"}, "axis": 3, "center": true, "beta_regularizer": null, "epsilon": 0.001, "scale": true, "moving_mean_initializer": {"config": {}, "class_name": "Zeros"}, "gamma_regularizer": null, "name": "bn4d_branch2b", "beta_constraint": null, "gamma_initializer": {"config": {}, "class_name": "Ones"}, "moving_variance_initializer": {"config": {}, "class_name": "Ones"}}, "inbound_nodes": [[["res4d_branch2b", 0, 0, {}]]], "class_name": "BatchNormalization"}, {"name": "activation_955", "config": {"name": "activation_955", "activation": "relu", "trainable": true}, "inbound_nodes": [[["bn4d_branch2b", 0, 0, {}]]], "class_name": "Activation"}, {"name": "res4d_branch2c", "config": {"filters": 1024, "kernel_size": [1, 1], "trainable": true, "data_format": "channels_last", "dilation_rate": [1, 1], "bias_constraint": null, "activation": "linear", "strides": [1, 1], "bias_initializer": {"config": {"seed": null, "mode": "fan_avg", "scale": 1.0, "distribution": "uniform"}, "class_name": "VarianceScaling"}, "kernel_constraint": null, "kernel_initializer": {"config": {"seed": null, "mode": "fan_avg", "scale": 1.0, "distribution": "uniform"}, "class_name": "VarianceScaling"}, "padding": "valid", "use_bias": true, "name": "res4d_branch2c", "bias_regularizer": null, "kernel_regularizer": null, "activity_regularizer": null}, "inbound_nodes": [[["activation_955", 0, 0, {}]]], "class_name": "Conv2D"}, {"name": "bn4d_branch2c", "config": {"momentum": 0.99, "gamma_constraint": null, "trainable": true, "beta_initializer": {"config": {}, "class_name": "Zeros"}, "axis": 3, "center": true, "beta_regularizer": null, "epsilon": 0.001, "scale": true, "moving_mean_initializer": {"config": {}, "class_name": "Zeros"}, "gamma_regularizer": null, "name": "bn4d_branch2c", "beta_constraint": null, "gamma_initializer": {"config": {}, "class_name": "Ones"}, "moving_variance_initializer": {"config": {}, "class_name": "Ones"}}, "inbound_nodes": [[["res4d_branch2c", 0, 0, {}]]], "class_name": "BatchNormalization"}, {"name": "add_299", "config": {"name": "add_299", "trainable": true}, "inbound_nodes": [[["bn4d_branch2c", 0, 0, {}], ["activation_953", 0, 0, {}]]], "class_name": "Add"}, {"name": "activation_956", "config": {"name": "activation_956", "activation": "relu", "trainable": true}, "inbound_nodes": [[["add_299", 0, 0, {}]]], "class_name": "Activation"}, {"name": "res4e_branch2a", "config": {"filters": 256, "kernel_size": [1, 1], "trainable": true, "data_format": "channels_last", "dilation_rate": [1, 1], "bias_constraint": null, "activation": "linear", "strides": [1, 1], "bias_initializer": {"config": {"seed": null, "mode": "fan_avg", "scale": 1.0, "distribution": "uniform"}, "class_name": "VarianceScaling"}, "kernel_constraint": null, "kernel_initializer": {"config": {"seed": null, "mode": "fan_avg", "scale": 1.0, "distribution": "uniform"}, "class_name": "VarianceScaling"}, "padding": "valid", "use_bias": true, "name": "res4e_branch2a", "bias_regularizer": null, "kernel_regularizer": null, "activity_regularizer": null}, "inbound_nodes": [[["activation_956", 0, 0, {}]]], "class_name": "Conv2D"}, {"name": "bn4e_branch2a", "config": {"momentum": 0.99, "gamma_constraint": null, "trainable": true, "beta_initializer": {"config": {}, "class_name": "Zeros"}, "axis": 3, "center": true, "beta_regularizer": null, "epsilon": 0.001, "scale": true, "moving_mean_initializer": {"config": {}, "class_name": "Zeros"}, "gamma_regularizer": null, "name": "bn4e_branch2a", "beta_constraint": null, "gamma_initializer": {"config": {}, "class_name": "Ones"}, "moving_variance_initializer": {"config": {}, "class_name": "Ones"}}, "inbound_nodes": [[["res4e_branch2a", 0, 0, {}]]], "class_name": "BatchNormalization"}, {"name": "activation_957", "config": {"name": "activation_957", "activation": "relu", "trainable": true}, "inbound_nodes": [[["bn4e_branch2a", 0, 0, {}]]], "class_name": "Activation"}, {"name": "res4e_branch2b", "config": {"filters": 256, "kernel_size": [3, 3], "trainable": true, "data_format": "channels_last", "dilation_rate": [1, 1], "bias_constraint": null, "activation": "linear", "strides": [1, 1], "bias_initializer": {"config": {"seed": null, "mode": "fan_avg", "scale": 1.0, "distribution": "uniform"}, "class_name": "VarianceScaling"}, "kernel_constraint": null, "kernel_initializer": {"config": {"seed": null, "mode": "fan_avg", "scale": 1.0, "distribution": "uniform"}, "class_name": "VarianceScaling"}, "padding": "same", "use_bias": true, "name": "res4e_branch2b", "bias_regularizer": null, "kernel_regularizer": null, "activity_regularizer": null}, "inbound_nodes": [[["activation_957", 0, 0, {}]]], "class_name": "Conv2D"}, {"name": "bn4e_branch2b", "config": {"momentum": 0.99, "gamma_constraint": null, "trainable": true, "beta_initializer": {"config": {}, "class_name": "Zeros"}, "axis": 3, "center": true, "beta_regularizer": null, "epsilon": 0.001, "scale": true, "moving_mean_initializer": {"config": {}, "class_name": "Zeros"}, "gamma_regularizer": null, "name": "bn4e_branch2b", "beta_constraint": null, "gamma_initializer": {"config": {}, "class_name": "Ones"}, "moving_variance_initializer": {"config": {}, "class_name": "Ones"}}, "inbound_nodes": [[["res4e_branch2b", 0, 0, {}]]], "class_name": "BatchNormalization"}, {"name": "activation_958", "config": {"name": "activation_958", "activation": "relu", "trainable": true}, "inbound_nodes": [[["bn4e_branch2b", 0, 0, {}]]], "class_name": "Activation"}, {"name": "res4e_branch2c", "config": {"filters": 1024, "kernel_size": [1, 1], "trainable": true, "data_format": "channels_last", "dilation_rate": [1, 1], "bias_constraint": null, "activation": "linear", "strides": [1, 1], "bias_initializer": {"config": {"seed": null, "mode": "fan_avg", "scale": 1.0, "distribution": "uniform"}, "class_name": "VarianceScaling"}, "kernel_constraint": null, "kernel_initializer": {"config": {"seed": null, "mode": "fan_avg", "scale": 1.0, "distribution": "uniform"}, "class_name": "VarianceScaling"}, "padding": "valid", "use_bias": true, "name": "res4e_branch2c", "bias_regularizer": null, "kernel_regularizer": null, "activity_regularizer": null}, "inbound_nodes": [[["activation_958", 0, 0, {}]]], "class_name": "Conv2D"}, {"name": "bn4e_branch2c", "config": {"momentum": 0.99, "gamma_constraint": null, "trainable": true, "beta_initializer": {"config": {}, "class_name": "Zeros"}, "axis": 3, "center": true, "beta_regularizer": null, "epsilon": 0.001, "scale": true, "moving_mean_initializer": {"config": {}, "class_name": "Zeros"}, "gamma_regularizer": null, "name": "bn4e_branch2c", "beta_constraint": null, "gamma_initializer": {"config": {}, "class_name": "Ones"}, "moving_variance_initializer": {"config": {}, "class_name": "Ones"}}, "inbound_nodes": [[["res4e_branch2c", 0, 0, {}]]], "class_name": "BatchNormalization"}, {"name": "add_300", "config": {"name": "add_300", "trainable": true}, "inbound_nodes": [[["bn4e_branch2c", 0, 0, {}], ["activation_956", 0, 0, {}]]], "class_name": "Add"}, {"name": "activation_959", "config": {"name": "activation_959", "activation": "relu", "trainable": true}, "inbound_nodes": [[["add_300", 0, 0, {}]]], "class_name": "Activation"}, {"name": "res4f_branch2a", "config": {"filters": 256, "kernel_size": [1, 1], "trainable": true, "data_format": "channels_last", "dilation_rate": [1, 1], "bias_constraint": null, "activation": "linear", "strides": [1, 1], "bias_initializer": {"config": {"seed": null, "mode": "fan_avg", "scale": 1.0, "distribution": "uniform"}, "class_name": "VarianceScaling"}, "kernel_constraint": null, "kernel_initializer": {"config": {"seed": null, "mode": "fan_avg", "scale": 1.0, "distribution": "uniform"}, "class_name": "VarianceScaling"}, "padding": "valid", "use_bias": true, "name": "res4f_branch2a", "bias_regularizer": null, "kernel_regularizer": null, "activity_regularizer": null}, "inbound_nodes": [[["activation_959", 0, 0, {}]]], "class_name": "Conv2D"}, {"name": "bn4f_branch2a", "config": {"momentum": 0.99, "gamma_constraint": null, "trainable": true, "beta_initializer": {"config": {}, "class_name": "Zeros"}, "axis": 3, "center": true, "beta_regularizer": null, "epsilon": 0.001, "scale": true, "moving_mean_initializer": {"config": {}, "class_name": "Zeros"}, "gamma_regularizer": null, "name": "bn4f_branch2a", "beta_constraint": null, "gamma_initializer": {"config": {}, "class_name": "Ones"}, "moving_variance_initializer": {"config": {}, "class_name": "Ones"}}, "inbound_nodes": [[["res4f_branch2a", 0, 0, {}]]], "class_name": "BatchNormalization"}, {"name": "activation_960", "config": {"name": "activation_960", "activation": "relu", "trainable": true}, "inbound_nodes": [[["bn4f_branch2a", 0, 0, {}]]], "class_name": "Activation"}, {"name": "res4f_branch2b", "config": {"filters": 256, "kernel_size": [3, 3], "trainable": true, "data_format": "channels_last", "dilation_rate": [1, 1], "bias_constraint": null, "activation": "linear", "strides": [1, 1], "bias_initializer": {"config": {"seed": null, "mode": "fan_avg", "scale": 1.0, "distribution": "uniform"}, "class_name": "VarianceScaling"}, "kernel_constraint": null, "kernel_initializer": {"config": {"seed": null, "mode": "fan_avg", "scale": 1.0, "distribution": "uniform"}, "class_name": "VarianceScaling"}, "padding": "same", "use_bias": true, "name": "res4f_branch2b", "bias_regularizer": null, "kernel_regularizer": null, "activity_regularizer": null}, "inbound_nodes": [[["activation_960", 0, 0, {}]]], "class_name": "Conv2D"}, {"name": "bn4f_branch2b", "config": {"momentum": 0.99, "gamma_constraint": null, "trainable": true, "beta_initializer": {"config": {}, "class_name": "Zeros"}, "axis": 3, "center": true, "beta_regularizer": null, "epsilon": 0.001, "scale": true, "moving_mean_initializer": {"config": {}, "class_name": "Zeros"}, "gamma_regularizer": null, "name": "bn4f_branch2b", "beta_constraint": null, "gamma_initializer": {"config": {}, "class_name": "Ones"}, "moving_variance_initializer": {"config": {}, "class_name": "Ones"}}, "inbound_nodes": [[["res4f_branch2b", 0, 0, {}]]], "class_name": "BatchNormalization"}, {"name": "activation_961", "config": {"name": "activation_961", "activation": "relu", "trainable": true}, "inbound_nodes": [[["bn4f_branch2b", 0, 0, {}]]], "class_name": "Activation"}, {"name": "res4f_branch2c", "config": {"filters": 1024, "kernel_size": [1, 1], "trainable": true, "data_format": "channels_last", "dilation_rate": [1, 1], "bias_constraint": null, "activation": "linear", "strides": [1, 1], "bias_initializer": {"config": {"seed": null, "mode": "fan_avg", "scale": 1.0, "distribution": "uniform"}, "class_name": "VarianceScaling"}, "kernel_constraint": null, "kernel_initializer": {"config": {"seed": null, "mode": "fan_avg", "scale": 1.0, "distribution": "uniform"}, "class_name": "VarianceScaling"}, "padding": "valid", "use_bias": true, "name": "res4f_branch2c", "bias_regularizer": null, "kernel_regularizer": null, "activity_regularizer": null}, "inbound_nodes": [[["activation_961", 0, 0, {}]]], "class_name": "Conv2D"}, {"name": "bn4f_branch2c", "config": {"momentum": 0.99, "gamma_constraint": null, "trainable": true, "beta_initializer": {"config": {}, "class_name": "Zeros"}, "axis": 3, "center": true, "beta_regularizer": null, "epsilon": 0.001, "scale": true, "moving_mean_initializer": {"config": {}, "class_name": "Zeros"}, "gamma_regularizer": null, "name": "bn4f_branch2c", "beta_constraint": null, "gamma_initializer": {"config": {}, "class_name": "Ones"}, "moving_variance_initializer": {"config": {}, "class_name": "Ones"}}, "inbound_nodes": [[["res4f_branch2c", 0, 0, {}]]], "class_name": "BatchNormalization"}, {"name": "add_301", "config": {"name": "add_301", "trainable": true}, "inbound_nodes": [[["bn4f_branch2c", 0, 0, {}], ["activation_959", 0, 0, {}]]], "class_name": "Add"}, {"name": "activation_962", "config": {"name": "activation_962", "activation": "relu", "trainable": true}, "inbound_nodes": [[["add_301", 0, 0, {}]]], "class_name": "Activation"}, {"name": "res5a_branch2a", "config": {"filters": 512, "kernel_size": [1, 1], "trainable": true, "data_format": "channels_last", "dilation_rate": [1, 1], "bias_constraint": null, "activation": "linear", "strides": [2, 2], "bias_initializer": {"config": {"seed": null, "mode": "fan_avg", "scale": 1.0, "distribution": "uniform"}, "class_name": "VarianceScaling"}, "kernel_constraint": null, "kernel_initializer": {"config": {"seed": null, "mode": "fan_avg", "scale": 1.0, "distribution": "uniform"}, "class_name": "VarianceScaling"}, "padding": "valid", "use_bias": true, "name": "res5a_branch2a", "bias_regularizer": null, "kernel_regularizer": null, "activity_regularizer": null}, "inbound_nodes": [[["activation_962", 0, 0, {}]]], "class_name": "Conv2D"}, {"name": "bn5a_branch2a", "config": {"momentum": 0.99, "gamma_constraint": null, "trainable": true, "beta_initializer": {"config": {}, "class_name": "Zeros"}, "axis": 3, "center": true, "beta_regularizer": null, "epsilon": 0.001, "scale": true, "moving_mean_initializer": {"config": {}, "class_name": "Zeros"}, "gamma_regularizer": null, "name": "bn5a_branch2a", "beta_constraint": null, "gamma_initializer": {"config": {}, "class_name": "Ones"}, "moving_variance_initializer": {"config": {}, "class_name": "Ones"}}, "inbound_nodes": [[["res5a_branch2a", 0, 0, {}]]], "class_name": "BatchNormalization"}, {"name": "activation_963", "config": {"name": "activation_963", "activation": "relu", "trainable": true}, "inbound_nodes": [[["bn5a_branch2a", 0, 0, {}]]], "class_name": "Activation"}, {"name": "res5a_branch2b", "config": {"filters": 512, "kernel_size": [3, 3], "trainable": true, "data_format": "channels_last", "dilation_rate": [1, 1], "bias_constraint": null, "activation": "linear", "strides": [1, 1], "bias_initializer": {"config": {"seed": null, "mode": "fan_avg", "scale": 1.0, "distribution": "uniform"}, "class_name": "VarianceScaling"}, "kernel_constraint": null, "kernel_initializer": {"config": {"seed": null, "mode": "fan_avg", "scale": 1.0, "distribution": "uniform"}, "class_name": "VarianceScaling"}, "padding": "same", "use_bias": true, "name": "res5a_branch2b", "bias_regularizer": null, "kernel_regularizer": null, "activity_regularizer": null}, "inbound_nodes": [[["activation_963", 0, 0, {}]]], "class_name": "Conv2D"}, {"name": "bn5a_branch2b", "config": {"momentum": 0.99, "gamma_constraint": null, "trainable": true, "beta_initializer": {"config": {}, "class_name": "Zeros"}, "axis": 3, "center": true, "beta_regularizer": null, "epsilon": 0.001, "scale": true, "moving_mean_initializer": {"config": {}, "class_name": "Zeros"}, "gamma_regularizer": null, "name": "bn5a_branch2b", "beta_constraint": null, "gamma_initializer": {"config": {}, "class_name": "Ones"}, "moving_variance_initializer": {"config": {}, "class_name": "Ones"}}, "inbound_nodes": [[["res5a_branch2b", 0, 0, {}]]], "class_name": "BatchNormalization"}, {"name": "activation_964", "config": {"name": "activation_964", "activation": "relu", "trainable": true}, "inbound_nodes": [[["bn5a_branch2b", 0, 0, {}]]], "class_name": "Activation"}, {"name": "res5a_branch2c", "config": {"filters": 2048, "kernel_size": [1, 1], "trainable": true, "data_format": "channels_last", "dilation_rate": [1, 1], "bias_constraint": null, "activation": "linear", "strides": [1, 1], "bias_initializer": {"config": {"seed": null, "mode": "fan_avg", "scale": 1.0, "distribution": "uniform"}, "class_name": "VarianceScaling"}, "kernel_constraint": null, "kernel_initializer": {"config": {"seed": null, "mode": "fan_avg", "scale": 1.0, "distribution": "uniform"}, "class_name": "VarianceScaling"}, "padding": "valid", "use_bias": true, "name": "res5a_branch2c", "bias_regularizer": null, "kernel_regularizer": null, "activity_regularizer": null}, "inbound_nodes": [[["activation_964", 0, 0, {}]]], "class_name": "Conv2D"}, {"name": "res5a_branch1", "config": {"filters": 2048, "kernel_size": [1, 1], "trainable": true, "data_format": "channels_last", "dilation_rate": [1, 1], "bias_constraint": null, "activation": "linear", "strides": [2, 2], "bias_initializer": {"config": {"seed": null, "mode": "fan_avg", "scale": 1.0, "distribution": "uniform"}, "class_name": "VarianceScaling"}, "kernel_constraint": null, "kernel_initializer": {"config": {"seed": null, "mode": "fan_avg", "scale": 1.0, "distribution": "uniform"}, "class_name": "VarianceScaling"}, "padding": "valid", "use_bias": true, "name": "res5a_branch1", "bias_regularizer": null, "kernel_regularizer": null, "activity_regularizer": null}, "inbound_nodes": [[["activation_962", 0, 0, {}]]], "class_name": "Conv2D"}, {"name": "bn5a_branch2c", "config": {"momentum": 0.99, "gamma_constraint": null, "trainable": true, "beta_initializer": {"config": {}, "class_name": "Zeros"}, "axis": 3, "center": true, "beta_regularizer": null, "epsilon": 0.001, "scale": true, "moving_mean_initializer": {"config": {}, "class_name": "Zeros"}, "gamma_regularizer": null, "name": "bn5a_branch2c", "beta_constraint": null, "gamma_initializer": {"config": {}, "class_name": "Ones"}, "moving_variance_initializer": {"config": {}, "class_name": "Ones"}}, "inbound_nodes": [[["res5a_branch2c", 0, 0, {}]]], "class_name": "BatchNormalization"}, {"name": "bn5a_branch1", "config": {"momentum": 0.99, "gamma_constraint": null, "trainable": true, "beta_initializer": {"config": {}, "class_name": "Zeros"}, "axis": 3, "center": true, "beta_regularizer": null, "epsilon": 0.001, "scale": true, "moving_mean_initializer": {"config": {}, "class_name": "Zeros"}, "gamma_regularizer": null, "name": "bn5a_branch1", "beta_constraint": null, "gamma_initializer": {"config": {}, "class_name": "Ones"}, "moving_variance_initializer": {"config": {}, "class_name": "Ones"}}, "inbound_nodes": [[["res5a_branch1", 0, 0, {}]]], "class_name": "BatchNormalization"}, {"name": "add_302", "config": {"name": "add_302", "trainable": true}, "inbound_nodes": [[["bn5a_branch2c", 0, 0, {}], ["bn5a_branch1", 0, 0, {}]]], "class_name": "Add"}, {"name": "activation_965", "config": {"name": "activation_965", "activation": "relu", "trainable": true}, "inbound_nodes": [[["add_302", 0, 0, {}]]], "class_name": "Activation"}, {"name": "res5b_branch2a", "config": {"filters": 512, "kernel_size": [1, 1], "trainable": true, "data_format": "channels_last", "dilation_rate": [1, 1], "bias_constraint": null, "activation": "linear", "strides": [1, 1], "bias_initializer": {"config": {"seed": null, "mode": "fan_avg", "scale": 1.0, "distribution": "uniform"}, "class_name": "VarianceScaling"}, "kernel_constraint": null, "kernel_initializer": {"config": {"seed": null, "mode": "fan_avg", "scale": 1.0, "distribution": "uniform"}, "class_name": "VarianceScaling"}, "padding": "valid", "use_bias": true, "name": "res5b_branch2a", "bias_regularizer": null, "kernel_regularizer": null, "activity_regularizer": null}, "inbound_nodes": [[["activation_965", 0, 0, {}]]], "class_name": "Conv2D"}, {"name": "bn5b_branch2a", "config": {"momentum": 0.99, "gamma_constraint": null, "trainable": true, "beta_initializer": {"config": {}, "class_name": "Zeros"}, "axis": 3, "center": true, "beta_regularizer": null, "epsilon": 0.001, "scale": true, "moving_mean_initializer": {"config": {}, "class_name": "Zeros"}, "gamma_regularizer": null, "name": "bn5b_branch2a", "beta_constraint": null, "gamma_initializer": {"config": {}, "class_name": "Ones"}, "moving_variance_initializer": {"config": {}, "class_name": "Ones"}}, "inbound_nodes": [[["res5b_branch2a", 0, 0, {}]]], "class_name": "BatchNormalization"}, {"name": "activation_966", "config": {"name": "activation_966", "activation": "relu", "trainable": true}, "inbound_nodes": [[["bn5b_branch2a", 0, 0, {}]]], "class_name": "Activation"}, {"name": "res5b_branch2b", "config": {"filters": 512, "kernel_size": [3, 3], "trainable": true, "data_format": "channels_last", "dilation_rate": [1, 1], "bias_constraint": null, "activation": "linear", "strides": [1, 1], "bias_initializer": {"config": {"seed": null, "mode": "fan_avg", "scale": 1.0, "distribution": "uniform"}, "class_name": "VarianceScaling"}, "kernel_constraint": null, "kernel_initializer": {"config": {"seed": null, "mode": "fan_avg", "scale": 1.0, "distribution": "uniform"}, "class_name": "VarianceScaling"}, "padding": "same", "use_bias": true, "name": "res5b_branch2b", "bias_regularizer": null, "kernel_regularizer": null, "activity_regularizer": null}, "inbound_nodes": [[["activation_966", 0, 0, {}]]], "class_name": "Conv2D"}, {"name": "bn5b_branch2b", "config": {"momentum": 0.99, "gamma_constraint": null, "trainable": true, "beta_initializer": {"config": {}, "class_name": "Zeros"}, "axis": 3, "center": true, "beta_regularizer": null, "epsilon": 0.001, "scale": true, "moving_mean_initializer": {"config": {}, "class_name": "Zeros"}, "gamma_regularizer": null, "name": "bn5b_branch2b", "beta_constraint": null, "gamma_initializer": {"config": {}, "class_name": "Ones"}, "moving_variance_initializer": {"config": {}, "class_name": "Ones"}}, "inbound_nodes": [[["res5b_branch2b", 0, 0, {}]]], "class_name": "BatchNormalization"}, {"name": "activation_967", "config": {"name": "activation_967", "activation": "relu", "trainable": true}, "inbound_nodes": [[["bn5b_branch2b", 0, 0, {}]]], "class_name": "Activation"}, {"name": "res5b_branch2c", "config": {"filters": 2048, "kernel_size": [1, 1], "trainable": true, "data_format": "channels_last", "dilation_rate": [1, 1], "bias_constraint": null, "activation": "linear", "strides": [1, 1], "bias_initializer": {"config": {"seed": null, "mode": "fan_avg", "scale": 1.0, "distribution": "uniform"}, "class_name": "VarianceScaling"}, "kernel_constraint": null, "kernel_initializer": {"config": {"seed": null, "mode": "fan_avg", "scale": 1.0, "distribution": "uniform"}, "class_name": "VarianceScaling"}, "padding": "valid", "use_bias": true, "name": "res5b_branch2c", "bias_regularizer": null, "kernel_regularizer": null, "activity_regularizer": null}, "inbound_nodes": [[["activation_967", 0, 0, {}]]], "class_name": "Conv2D"}, {"name": "bn5b_branch2c", "config": {"momentum": 0.99, "gamma_constraint": null, "trainable": true, "beta_initializer": {"config": {}, "class_name": "Zeros"}, "axis": 3, "center": true, "beta_regularizer": null, "epsilon": 0.001, "scale": true, "moving_mean_initializer": {"config": {}, "class_name": "Zeros"}, "gamma_regularizer": null, "name": "bn5b_branch2c", "beta_constraint": null, "gamma_initializer": {"config": {}, "class_name": "Ones"}, "moving_variance_initializer": {"config": {}, "class_name": "Ones"}}, "inbound_nodes": [[["res5b_branch2c", 0, 0, {}]]], "class_name": "BatchNormalization"}, {"name": "add_303", "config": {"name": "add_303", "trainable": true}, "inbound_nodes": [[["bn5b_branch2c", 0, 0, {}], ["activation_965", 0, 0, {}]]], "class_name": "Add"}, {"name": "activation_968", "config": {"name": "activation_968", "activation": "relu", "trainable": true}, "inbound_nodes": [[["add_303", 0, 0, {}]]], "class_name": "Activation"}, {"name": "res5c_branch2a", "config": {"filters": 512, "kernel_size": [1, 1], "trainable": true, "data_format": "channels_last", "dilation_rate": [1, 1], "bias_constraint": null, "activation": "linear", "strides": [1, 1], "bias_initializer": {"config": {"seed": null, "mode": "fan_avg", "scale": 1.0, "distribution": "uniform"}, "class_name": "VarianceScaling"}, "kernel_constraint": null, "kernel_initializer": {"config": {"seed": null, "mode": "fan_avg", "scale": 1.0, "distribution": "uniform"}, "class_name": "VarianceScaling"}, "padding": "valid", "use_bias": true, "name": "res5c_branch2a", "bias_regularizer": null, "kernel_regularizer": null, "activity_regularizer": null}, "inbound_nodes": [[["activation_968", 0, 0, {}]]], "class_name": "Conv2D"}, {"name": "bn5c_branch2a", "config": {"momentum": 0.99, "gamma_constraint": null, "trainable": true, "beta_initializer": {"config": {}, "class_name": "Zeros"}, "axis": 3, "center": true, "beta_regularizer": null, "epsilon": 0.001, "scale": true, "moving_mean_initializer": {"config": {}, "class_name": "Zeros"}, "gamma_regularizer": null, "name": "bn5c_branch2a", "beta_constraint": null, "gamma_initializer": {"config": {}, "class_name": "Ones"}, "moving_variance_initializer": {"config": {}, "class_name": "Ones"}}, "inbound_nodes": [[["res5c_branch2a", 0, 0, {}]]], "class_name": "BatchNormalization"}, {"name": "activation_969", "config": {"name": "activation_969", "activation": "relu", "trainable": true}, "inbound_nodes": [[["bn5c_branch2a", 0, 0, {}]]], "class_name": "Activation"}, {"name": "res5c_branch2b", "config": {"filters": 512, "kernel_size": [3, 3], "trainable": true, "data_format": "channels_last", "dilation_rate": [1, 1], "bias_constraint": null, "activation": "linear", "strides": [1, 1], "bias_initializer": {"config": {"seed": null, "mode": "fan_avg", "scale": 1.0, "distribution": "uniform"}, "class_name": "VarianceScaling"}, "kernel_constraint": null, "kernel_initializer": {"config": {"seed": null, "mode": "fan_avg", "scale": 1.0, "distribution": "uniform"}, "class_name": "VarianceScaling"}, "padding": "same", "use_bias": true, "name": "res5c_branch2b", "bias_regularizer": null, "kernel_regularizer": null, "activity_regularizer": null}, "inbound_nodes": [[["activation_969", 0, 0, {}]]], "class_name": "Conv2D"}, {"name": "bn5c_branch2b", "config": {"momentum": 0.99, "gamma_constraint": null, "trainable": true, "beta_initializer": {"config": {}, "class_name": "Zeros"}, "axis": 3, "center": true, "beta_regularizer": null, "epsilon": 0.001, "scale": true, "moving_mean_initializer": {"config": {}, "class_name": "Zeros"}, "gamma_regularizer": null, "name": "bn5c_branch2b", "beta_constraint": null, "gamma_initializer": {"config": {}, "class_name": "Ones"}, "moving_variance_initializer": {"config": {}, "class_name": "Ones"}}, "inbound_nodes": [[["res5c_branch2b", 0, 0, {}]]], "class_name": "BatchNormalization"}, {"name": "activation_970", "config": {"name": "activation_970", "activation": "relu", "trainable": true}, "inbound_nodes": [[["bn5c_branch2b", 0, 0, {}]]], "class_name": "Activation"}, {"name": "res5c_branch2c", "config": {"filters": 2048, "kernel_size": [1, 1], "trainable": true, "data_format": "channels_last", "dilation_rate": [1, 1], "bias_constraint": null, "activation": "linear", "strides": [1, 1], "bias_initializer": {"config": {"seed": null, "mode": "fan_avg", "scale": 1.0, "distribution": "uniform"}, "class_name": "VarianceScaling"}, "kernel_constraint": null, "kernel_initializer": {"config": {"seed": null, "mode": "fan_avg", "scale": 1.0, "distribution": "uniform"}, "class_name": "VarianceScaling"}, "padding": "valid", "use_bias": true, "name": "res5c_branch2c", "bias_regularizer": null, "kernel_regularizer": null, "activity_regularizer": null}, "inbound_nodes": [[["activation_970", 0, 0, {}]]], "class_name": "Conv2D"}, {"name": "bn5c_branch2c", "config": {"momentum": 0.99, "gamma_constraint": null, "trainable": true, "beta_initializer": {"config": {}, "class_name": "Zeros"}, "axis": 3, "center": true, "beta_regularizer": null, "epsilon": 0.001, "scale": true, "moving_mean_initializer": {"config": {}, "class_name": "Zeros"}, "gamma_regularizer": null, "name": "bn5c_branch2c", "beta_constraint": null, "gamma_initializer": {"config": {}, "class_name": "Ones"}, "moving_variance_initializer": {"config": {}, "class_name": "Ones"}}, "inbound_nodes": [[["res5c_branch2c", 0, 0, {}]]], "class_name": "BatchNormalization"}, {"name": "add_304", "config": {"name": "add_304", "trainable": true}, "inbound_nodes": [[["bn5c_branch2c", 0, 0, {}], ["activation_968", 0, 0, {}]]], "class_name": "Add"}, {"name": "activation_971", "config": {"name": "activation_971", "activation": "relu", "trainable": true}, "inbound_nodes": [[["add_304", 0, 0, {}]]], "class_name": "Activation"}, {"name": "avg_pool", "config": {"pool_size": [7, 7], "data_format": "channels_last", "padding": "valid", "trainable": true, "name": "avg_pool", "strides": [7, 7]}, "inbound_nodes": [[["activation_971", 0, 0, {}]]], "class_name": "AveragePooling2D"}], "output_layers": [["avg_pool", 0, 0]], "input_layers": [["input_19", 0, 0]]}, "class_name": "Model", "backend": "tensorflow"}