{"keras_version": "2.0.0", "config": {"name": "resnet50", "layers": [{"name": "input_10", "config": {"name": "input_10", "dtype": "float32", "batch_input_shape": [null, 224, 224, 3], "sparse": false}, "inbound_nodes": [], "class_name": "InputLayer"}, {"name": "zero_padding2d_10", "config": {"name": "zero_padding2d_10", "data_format": "channels_last", "padding": [[3, 3], [3, 3]], "trainable": true}, "inbound_nodes": [[["input_10", 0, 0, {}]]], "class_name": "ZeroPadding2D"}, {"name": "conv1", "config": {"filters": 64, "kernel_size": [7, 7], "trainable": true, "data_format": "channels_last", "dilation_rate": [1, 1], "bias_constraint": null, "activation": "linear", "strides": [2, 2], "bias_initializer": {"config": {"seed": null, "mode": "fan_avg", "scale": 1.0, "distribution": "uniform"}, "class_name": "VarianceScaling"}, "kernel_constraint": null, "kernel_initializer": {"config": {"seed": null, "mode": "fan_avg", "scale": 1.0, "distribution": "uniform"}, "class_name": "VarianceScaling"}, "padding": "valid", "use_bias": true, "name": "conv1", "bias_regularizer": null, "kernel_regularizer": null, "activity_regularizer": null}, "inbound_nodes": [[["zero_padding2d_10", 0, 0, {}]]], "class_name": "Conv2D"}, {"name": "bn_conv1", "config": {"momentum": 0.99, "gamma_constraint": null, "trainable": true, "beta_initializer": {"config": {}, "class_name": "Zeros"}, "axis": 3, "center": true, "beta_regularizer": null, "epsilon": 0.001, "scale": true, "moving_mean_initializer": {"config": {}, "class_name": "Zeros"}, "gamma_regularizer": null, "name": "bn_conv1", "beta_constraint": null, "gamma_initializer": {"config": {}, "class_name": "Ones"}, "moving_variance_initializer": {"config": {}, "class_name": "Ones"}}, "inbound_nodes": [[["conv1", 0, 0, {}]]], "class_name": "BatchNormalization"}, {"name": "activation_482", "config": {"name": "activation_482", "activation": "relu", "trainable": true}, "inbound_nodes": [[["bn_conv1", 0, 0, {}]]], "class_name": "Activation"}, {"name": "max_pooling2d_40", "config": {"pool_size": [3, 3], "data_format": "channels_last", "padding": "valid", "trainable": true, "name": "max_pooling2d_40", "strides": [2, 2]}, "inbound_nodes": [[["activation_482", 0, 0, {}]]], "class_name": "MaxPooling2D"}, {"name": "res2a_branch2a", "config": {"filters": 64, "kernel_size": [1, 1], "trainable": true, "data_format": "channels_last", "dilation_rate": [1, 1], "bias_constraint": null, "activation": "linear", "strides": [1, 1], "bias_initializer": {"config": {"seed": null, "mode": "fan_avg", "scale": 1.0, "distribution": "uniform"}, "class_name": "VarianceScaling"}, "kernel_constraint": null, "kernel_initializer": {"config": {"seed": null, "mode": "fan_avg", "scale": 1.0, "distribution": "uniform"}, "class_name": "VarianceScaling"}, "padding": "valid", "use_bias": true, "name": "res2a_branch2a", "bias_regularizer": null, "kernel_regularizer": null, "activity_regularizer": null}, "inbound_nodes": [[["max_pooling2d_40", 0, 0, {}]]], "class_name": "Conv2D"}, {"name": "bn2a_branch2a", "config": {"momentum": 0.99, "gamma_constraint": null, "trainable": true, "beta_initializer": {"config": {}, "class_name": "Zeros"}, "axis": 3, "center": true, "beta_regularizer": null, "epsilon": 0.001, "scale": true, "moving_mean_initializer": {"config": {}, "class_name": "Zeros"}, "gamma_regularizer": null, "name": "bn2a_branch2a", "beta_constraint": null, "gamma_initializer": {"config": {}, "class_name": "Ones"}, "moving_variance_initializer": {"config": {}, "class_name": "Ones"}}, "inbound_nodes": [[["res2a_branch2a", 0, 0, {}]]], "class_name": "BatchNormalization"}, {"name": "activation_483", "config": {"name": "activation_483", "activation": "relu", "trainable": true}, "inbound_nodes": [[["bn2a_branch2a", 0, 0, {}]]], "class_name": "Activation"}, {"name": "res2a_branch2b", "config": {"filters": 64, "kernel_size": [3, 3], "trainable": true, "data_format": "channels_last", "dilation_rate": [1, 1], "bias_constraint": null, "activation": "linear", "strides": [1, 1], "bias_initializer": {"config": {"seed": null, "mode": "fan_avg", "scale": 1.0, "distribution": "uniform"}, "class_name": "VarianceScaling"}, "kernel_constraint": null, "kernel_initializer": {"config": {"seed": null, "mode": "fan_avg", "scale": 1.0, "distribution": "uniform"}, "class_name": "VarianceScaling"}, "padding": "same", "use_bias": true, "name": "res2a_branch2b", "bias_regularizer": null, "kernel_regularizer": null, "activity_regularizer": null}, "inbound_nodes": [[["activation_483", 0, 0, {}]]], "class_name": "Conv2D"}, {"name": "bn2a_branch2b", "config": {"momentum": 0.99, "gamma_constraint": null, "trainable": true, "beta_initializer": {"config": {}, "class_name": "Zeros"}, "axis": 3, "center": true, "beta_regularizer": null, "epsilon": 0.001, "scale": true, "moving_mean_initializer": {"config": {}, "class_name": "Zeros"}, "gamma_regularizer": null, "name": "bn2a_branch2b", "beta_constraint": null, "gamma_initializer": {"config": {}, "class_name": "Ones"}, "moving_variance_initializer": {"config": {}, "class_name": "Ones"}}, "inbound_nodes": [[["res2a_branch2b", 0, 0, {}]]], "class_name": "BatchNormalization"}, {"name": "activation_484", "config": {"name": "activation_484", "activation": "relu", "trainable": true}, "inbound_nodes": [[["bn2a_branch2b", 0, 0, {}]]], "class_name": "Activation"}, {"name": "res2a_branch2c", "config": {"filters": 256, "kernel_size": [1, 1], "trainable": true, "data_format": "channels_last", "dilation_rate": [1, 1], "bias_constraint": null, "activation": "linear", "strides": [1, 1], "bias_initializer": {"config": {"seed": null, "mode": "fan_avg", "scale": 1.0, "distribution": "uniform"}, "class_name": "VarianceScaling"}, "kernel_constraint": null, "kernel_initializer": {"config": {"seed": null, "mode": "fan_avg", "scale": 1.0, "distribution": "uniform"}, "class_name": "VarianceScaling"}, "padding": "valid", "use_bias": true, "name": "res2a_branch2c", "bias_regularizer": null, "kernel_regularizer": null, "activity_regularizer": null}, "inbound_nodes": [[["activation_484", 0, 0, {}]]], "class_name": "Conv2D"}, {"name": "res2a_branch1", "config": {"filters": 256, "kernel_size": [1, 1], "trainable": true, "data_format": "channels_last", "dilation_rate": [1, 1], "bias_constraint": null, "activation": "linear", "strides": [1, 1], "bias_initializer": {"config": {"seed": null, "mode": "fan_avg", "scale": 1.0, "distribution": "uniform"}, "class_name": "VarianceScaling"}, "kernel_constraint": null, "kernel_initializer": {"config": {"seed": null, "mode": "fan_avg", "scale": 1.0, "distribution": "uniform"}, "class_name": "VarianceScaling"}, "padding": "valid", "use_bias": true, "name": "res2a_branch1", "bias_regularizer": null, "kernel_regularizer": null, "activity_regularizer": null}, "inbound_nodes": [[["max_pooling2d_40", 0, 0, {}]]], "class_name": "Conv2D"}, {"name": "bn2a_branch2c", "config": {"momentum": 0.99, "gamma_constraint": null, "trainable": true, "beta_initializer": {"config": {}, "class_name": "Zeros"}, "axis": 3, "center": true, "beta_regularizer": null, "epsilon": 0.001, "scale": true, "moving_mean_initializer": {"config": {}, "class_name": "Zeros"}, "gamma_regularizer": null, "name": "bn2a_branch2c", "beta_constraint": null, "gamma_initializer": {"config": {}, "class_name": "Ones"}, "moving_variance_initializer": {"config": {}, "class_name": "Ones"}}, "inbound_nodes": [[["res2a_branch2c", 0, 0, {}]]], "class_name": "BatchNormalization"}, {"name": "bn2a_branch1", "config": {"momentum": 0.99, "gamma_constraint": null, "trainable": true, "beta_initializer": {"config": {}, "class_name": "Zeros"}, "axis": 3, "center": true, "beta_regularizer": null, "epsilon": 0.001, "scale": true, "moving_mean_initializer": {"config": {}, "class_name": "Zeros"}, "gamma_regularizer": null, "name": "bn2a_branch1", "beta_constraint": null, "gamma_initializer": {"config": {}, "class_name": "Ones"}, "moving_variance_initializer": {"config": {}, "class_name": "Ones"}}, "inbound_nodes": [[["res2a_branch1", 0, 0, {}]]], "class_name": "BatchNormalization"}, {"name": "add_145", "config": {"name": "add_145", "trainable": true}, "inbound_nodes": [[["bn2a_branch2c", 0, 0, {}], ["bn2a_branch1", 0, 0, {}]]], "class_name": "Add"}, {"name": "activation_485", "config": {"name": "activation_485", "activation": "relu", "trainable": true}, "inbound_nodes": [[["add_145", 0, 0, {}]]], "class_name": "Activation"}, {"name": "res2b_branch2a", "config": {"filters": 64, "kernel_size": [1, 1], "trainable": true, "data_format": "channels_last", "dilation_rate": [1, 1], "bias_constraint": null, "activation": "linear", "strides": [1, 1], "bias_initializer": {"config": {"seed": null, "mode": "fan_avg", "scale": 1.0, "distribution": "uniform"}, "class_name": "VarianceScaling"}, "kernel_constraint": null, "kernel_initializer": {"config": {"seed": null, "mode": "fan_avg", "scale": 1.0, "distribution": "uniform"}, "class_name": "VarianceScaling"}, "padding": "valid", "use_bias": true, "name": "res2b_branch2a", "bias_regularizer": null, "kernel_regularizer": null, "activity_regularizer": null}, "inbound_nodes": [[["activation_485", 0, 0, {}]]], "class_name": "Conv2D"}, {"name": "bn2b_branch2a", "config": {"momentum": 0.99, "gamma_constraint": null, "trainable": true, "beta_initializer": {"config": {}, "class_name": "Zeros"}, "axis": 3, "center": true, "beta_regularizer": null, "epsilon": 0.001, "scale": true, "moving_mean_initializer": {"config": {}, "class_name": "Zeros"}, "gamma_regularizer": null, "name": "bn2b_branch2a", "beta_constraint": null, "gamma_initializer": {"config": {}, "class_name": "Ones"}, "moving_variance_initializer": {"config": {}, "class_name": "Ones"}}, "inbound_nodes": [[["res2b_branch2a", 0, 0, {}]]], "class_name": "BatchNormalization"}, {"name": "activation_486", "config": {"name": "activation_486", "activation": "relu", "trainable": true}, "inbound_nodes": [[["bn2b_branch2a", 0, 0, {}]]], "class_name": "Activation"}, {"name": "res2b_branch2b", "config": {"filters": 64, "kernel_size": [3, 3], "trainable": true, "data_format": "channels_last", "dilation_rate": [1, 1], "bias_constraint": null, "activation": "linear", "strides": [1, 1], "bias_initializer": {"config": {"seed": null, "mode": "fan_avg", "scale": 1.0, "distribution": "uniform"}, "class_name": "VarianceScaling"}, "kernel_constraint": null, "kernel_initializer": {"config": {"seed": null, "mode": "fan_avg", "scale": 1.0, "distribution": "uniform"}, "class_name": "VarianceScaling"}, "padding": "same", "use_bias": true, "name": "res2b_branch2b", "bias_regularizer": null, "kernel_regularizer": null, "activity_regularizer": null}, "inbound_nodes": [[["activation_486", 0, 0, {}]]], "class_name": "Conv2D"}, {"name": "bn2b_branch2b", "config": {"momentum": 0.99, "gamma_constraint": null, "trainable": true, "beta_initializer": {"config": {}, "class_name": "Zeros"}, "axis": 3, "center": true, "beta_regularizer": null, "epsilon": 0.001, "scale": true, "moving_mean_initializer": {"config": {}, "class_name": "Zeros"}, "gamma_regularizer": null, "name": "bn2b_branch2b", "beta_constraint": null, "gamma_initializer": {"config": {}, "class_name": "Ones"}, "moving_variance_initializer": {"config": {}, "class_name": "Ones"}}, "inbound_nodes": [[["res2b_branch2b", 0, 0, {}]]], "class_name": "BatchNormalization"}, {"name": "activation_487", "config": {"name": "activation_487", "activation": "relu", "trainable": true}, "inbound_nodes": [[["bn2b_branch2b", 0, 0, {}]]], "class_name": "Activation"}, {"name": "res2b_branch2c", "config": {"filters": 256, "kernel_size": [1, 1], "trainable": true, "data_format": "channels_last", "dilation_rate": [1, 1], "bias_constraint": null, "activation": "linear", "strides": [1, 1], "bias_initializer": {"config": {"seed": null, "mode": "fan_avg", "scale": 1.0, "distribution": "uniform"}, "class_name": "VarianceScaling"}, "kernel_constraint": null, "kernel_initializer": {"config": {"seed": null, "mode": "fan_avg", "scale": 1.0, "distribution": "uniform"}, "class_name": "VarianceScaling"}, "padding": "valid", "use_bias": true, "name": "res2b_branch2c", "bias_regularizer": null, "kernel_regularizer": null, "activity_regularizer": null}, "inbound_nodes": [[["activation_487", 0, 0, {}]]], "class_name": "Conv2D"}, {"name": "bn2b_branch2c", "config": {"momentum": 0.99, "gamma_constraint": null, "trainable": true, "beta_initializer": {"config": {}, "class_name": "Zeros"}, "axis": 3, "center": true, "beta_regularizer": null, "epsilon": 0.001, "scale": true, "moving_mean_initializer": {"config": {}, "class_name": "Zeros"}, "gamma_regularizer": null, "name": "bn2b_branch2c", "beta_constraint": null, "gamma_initializer": {"config": {}, "class_name": "Ones"}, "moving_variance_initializer": {"config": {}, "class_name": "Ones"}}, "inbound_nodes": [[["res2b_branch2c", 0, 0, {}]]], "class_name": "BatchNormalization"}, {"name": "add_146", "config": {"name": "add_146", "trainable": true}, "inbound_nodes": [[["bn2b_branch2c", 0, 0, {}], ["activation_485", 0, 0, {}]]], "class_name": "Add"}, {"name": "activation_488", "config": {"name": "activation_488", "activation": "relu", "trainable": true}, "inbound_nodes": [[["add_146", 0, 0, {}]]], "class_name": "Activation"}, {"name": "res2c_branch2a", "config": {"filters": 64, "kernel_size": [1, 1], "trainable": true, "data_format": "channels_last", "dilation_rate": [1, 1], "bias_constraint": null, "activation": "linear", "strides": [1, 1], "bias_initializer": {"config": {"seed": null, "mode": "fan_avg", "scale": 1.0, "distribution": "uniform"}, "class_name": "VarianceScaling"}, "kernel_constraint": null, "kernel_initializer": {"config": {"seed": null, "mode": "fan_avg", "scale": 1.0, "distribution": "uniform"}, "class_name": "VarianceScaling"}, "padding": "valid", "use_bias": true, "name": "res2c_branch2a", "bias_regularizer": null, "kernel_regularizer": null, "activity_regularizer": null}, "inbound_nodes": [[["activation_488", 0, 0, {}]]], "class_name": "Conv2D"}, {"name": "bn2c_branch2a", "config": {"momentum": 0.99, "gamma_constraint": null, "trainable": true, "beta_initializer": {"config": {}, "class_name": "Zeros"}, "axis": 3, "center": true, "beta_regularizer": null, "epsilon": 0.001, "scale": true, "moving_mean_initializer": {"config": {}, "class_name": "Zeros"}, "gamma_regularizer": null, "name": "bn2c_branch2a", "beta_constraint": null, "gamma_initializer": {"config": {}, "class_name": "Ones"}, "moving_variance_initializer": {"config": {}, "class_name": "Ones"}}, "inbound_nodes": [[["res2c_branch2a", 0, 0, {}]]], "class_name": "BatchNormalization"}, {"name": "activation_489", "config": {"name": "activation_489", "activation": "relu", "trainable": true}, "inbound_nodes": [[["bn2c_branch2a", 0, 0, {}]]], "class_name": "Activation"}, {"name": "res2c_branch2b", "config": {"filters": 64, "kernel_size": [3, 3], "trainable": true, "data_format": "channels_last", "dilation_rate": [1, 1], "bias_constraint": null, "activation": "linear", "strides": [1, 1], "bias_initializer": {"config": {"seed": null, "mode": "fan_avg", "scale": 1.0, "distribution": "uniform"}, "class_name": "VarianceScaling"}, "kernel_constraint": null, "kernel_initializer": {"config": {"seed": null, "mode": "fan_avg", "scale": 1.0, "distribution": "uniform"}, "class_name": "VarianceScaling"}, "padding": "same", "use_bias": true, "name": "res2c_branch2b", "bias_regularizer": null, "kernel_regularizer": null, "activity_regularizer": null}, "inbound_nodes": [[["activation_489", 0, 0, {}]]], "class_name": "Conv2D"}, {"name": "bn2c_branch2b", "config": {"momentum": 0.99, "gamma_constraint": null, "trainable": true, "beta_initializer": {"config": {}, "class_name": "Zeros"}, "axis": 3, "center": true, "beta_regularizer": null, "epsilon": 0.001, "scale": true, "moving_mean_initializer": {"config": {}, "class_name": "Zeros"}, "gamma_regularizer": null, "name": "bn2c_branch2b", "beta_constraint": null, "gamma_initializer": {"config": {}, "class_name": "Ones"}, "moving_variance_initializer": {"config": {}, "class_name": "Ones"}}, "inbound_nodes": [[["res2c_branch2b", 0, 0, {}]]], "class_name": "BatchNormalization"}, {"name": "activation_490", "config": {"name": "activation_490", "activation": "relu", "trainable": true}, "inbound_nodes": [[["bn2c_branch2b", 0, 0, {}]]], "class_name": "Activation"}, {"name": "res2c_branch2c", "config": {"filters": 256, "kernel_size": [1, 1], "trainable": true, "data_format": "channels_last", "dilation_rate": [1, 1], "bias_constraint": null, "activation": "linear", "strides": [1, 1], "bias_initializer": {"config": {"seed": null, "mode": "fan_avg", "scale": 1.0, "distribution": "uniform"}, "class_name": "VarianceScaling"}, "kernel_constraint": null, "kernel_initializer": {"config": {"seed": null, "mode": "fan_avg", "scale": 1.0, "distribution": "uniform"}, "class_name": "VarianceScaling"}, "padding": "valid", "use_bias": true, "name": "res2c_branch2c", "bias_regularizer": null, "kernel_regularizer": null, "activity_regularizer": null}, "inbound_nodes": [[["activation_490", 0, 0, {}]]], "class_name": "Conv2D"}, {"name": "bn2c_branch2c", "config": {"momentum": 0.99, "gamma_constraint": null, "trainable": true, "beta_initializer": {"config": {}, "class_name": "Zeros"}, "axis": 3, "center": true, "beta_regularizer": null, "epsilon": 0.001, "scale": true, "moving_mean_initializer": {"config": {}, "class_name": "Zeros"}, "gamma_regularizer": null, "name": "bn2c_branch2c", "beta_constraint": null, "gamma_initializer": {"config": {}, "class_name": "Ones"}, "moving_variance_initializer": {"config": {}, "class_name": "Ones"}}, "inbound_nodes": [[["res2c_branch2c", 0, 0, {}]]], "class_name": "BatchNormalization"}, {"name": "add_147", "config": {"name": "add_147", "trainable": true}, "inbound_nodes": [[["bn2c_branch2c", 0, 0, {}], ["activation_488", 0, 0, {}]]], "class_name": "Add"}, {"name": "activation_491", "config": {"name": "activation_491", "activation": "relu", "trainable": true}, "inbound_nodes": [[["add_147", 0, 0, {}]]], "class_name": "Activation"}, {"name": "res3a_branch2a", "config": {"filters": 128, "kernel_size": [1, 1], "trainable": true, "data_format": "channels_last", "dilation_rate": [1, 1], "bias_constraint": null, "activation": "linear", "strides": [2, 2], "bias_initializer": {"config": {"seed": null, "mode": "fan_avg", "scale": 1.0, "distribution": "uniform"}, "class_name": "VarianceScaling"}, "kernel_constraint": null, "kernel_initializer": {"config": {"seed": null, "mode": "fan_avg", "scale": 1.0, "distribution": "uniform"}, "class_name": "VarianceScaling"}, "padding": "valid", "use_bias": true, "name": "res3a_branch2a", "bias_regularizer": null, "kernel_regularizer": null, "activity_regularizer": null}, "inbound_nodes": [[["activation_491", 0, 0, {}]]], "class_name": "Conv2D"}, {"name": "bn3a_branch2a", "config": {"momentum": 0.99, "gamma_constraint": null, "trainable": true, "beta_initializer": {"config": {}, "class_name": "Zeros"}, "axis": 3, "center": true, "beta_regularizer": null, "epsilon": 0.001, "scale": true, "moving_mean_initializer": {"config": {}, "class_name": "Zeros"}, "gamma_regularizer": null, "name": "bn3a_branch2a", "beta_constraint": null, "gamma_initializer": {"config": {}, "class_name": "Ones"}, "moving_variance_initializer": {"config": {}, "class_name": "Ones"}}, "inbound_nodes": [[["res3a_branch2a", 0, 0, {}]]], "class_name": "BatchNormalization"}, {"name": "activation_492", "config": {"name": "activation_492", "activation": "relu", "trainable": true}, "inbound_nodes": [[["bn3a_branch2a", 0, 0, {}]]], "class_name": "Activation"}, {"name": "res3a_branch2b", "config": {"filters": 128, "kernel_size": [3, 3], "trainable": true, "data_format": "channels_last", "dilation_rate": [1, 1], "bias_constraint": null, "activation": "linear", "strides": [1, 1], "bias_initializer": {"config": {"seed": null, "mode": "fan_avg", "scale": 1.0, "distribution": "uniform"}, "class_name": "VarianceScaling"}, "kernel_constraint": null, "kernel_initializer": {"config": {"seed": null, "mode": "fan_avg", "scale": 1.0, "distribution": "uniform"}, "class_name": "VarianceScaling"}, "padding": "same", "use_bias": true, "name": "res3a_branch2b", "bias_regularizer": null, "kernel_regularizer": null, "activity_regularizer": null}, "inbound_nodes": [[["activation_492", 0, 0, {}]]], "class_name": "Conv2D"}, {"name": "bn3a_branch2b", "config": {"momentum": 0.99, "gamma_constraint": null, "trainable": true, "beta_initializer": {"config": {}, "class_name": "Zeros"}, "axis": 3, "center": true, "beta_regularizer": null, "epsilon": 0.001, "scale": true, "moving_mean_initializer": {"config": {}, "class_name": "Zeros"}, "gamma_regularizer": null, "name": "bn3a_branch2b", "beta_constraint": null, "gamma_initializer": {"config": {}, "class_name": "Ones"}, "moving_variance_initializer": {"config": {}, "class_name": "Ones"}}, "inbound_nodes": [[["res3a_branch2b", 0, 0, {}]]], "class_name": "BatchNormalization"}, {"name": "activation_493", "config": {"name": "activation_493", "activation": "relu", "trainable": true}, "inbound_nodes": [[["bn3a_branch2b", 0, 0, {}]]], "class_name": "Activation"}, {"name": "res3a_branch2c", "config": {"filters": 512, "kernel_size": [1, 1], "trainable": true, "data_format": "channels_last", "dilation_rate": [1, 1], "bias_constraint": null, "activation": "linear", "strides": [1, 1], "bias_initializer": {"config": {"seed": null, "mode": "fan_avg", "scale": 1.0, "distribution": "uniform"}, "class_name": "VarianceScaling"}, "kernel_constraint": null, "kernel_initializer": {"config": {"seed": null, "mode": "fan_avg", "scale": 1.0, "distribution": "uniform"}, "class_name": "VarianceScaling"}, "padding": "valid", "use_bias": true, "name": "res3a_branch2c", "bias_regularizer": null, "kernel_regularizer": null, "activity_regularizer": null}, "inbound_nodes": [[["activation_493", 0, 0, {}]]], "class_name": "Conv2D"}, {"name": "res3a_branch1", "config": {"filters": 512, "kernel_size": [1, 1], "trainable": true, "data_format": "channels_last", "dilation_rate": [1, 1], "bias_constraint": null, "activation": "linear", "strides": [2, 2], "bias_initializer": {"config": {"seed": null, "mode": "fan_avg", "scale": 1.0, "distribution": "uniform"}, "class_name": "VarianceScaling"}, "kernel_constraint": null, "kernel_initializer": {"config": {"seed": null, "mode": "fan_avg", "scale": 1.0, "distribution": "uniform"}, "class_name": "VarianceScaling"}, "padding": "valid", "use_bias": true, "name": "res3a_branch1", "bias_regularizer": null, "kernel_regularizer": null, "activity_regularizer": null}, "inbound_nodes": [[["activation_491", 0, 0, {}]]], "class_name": "Conv2D"}, {"name": "bn3a_branch2c", "config": {"momentum": 0.99, "gamma_constraint": null, "trainable": true, "beta_initializer": {"config": {}, "class_name": "Zeros"}, "axis": 3, "center": true, "beta_regularizer": null, "epsilon": 0.001, "scale": true, "moving_mean_initializer": {"config": {}, "class_name": "Zeros"}, "gamma_regularizer": null, "name": "bn3a_branch2c", "beta_constraint": null, "gamma_initializer": {"config": {}, "class_name": "Ones"}, "moving_variance_initializer": {"config": {}, "class_name": "Ones"}}, "inbound_nodes": [[["res3a_branch2c", 0, 0, {}]]], "class_name": "BatchNormalization"}, {"name": "bn3a_branch1", "config": {"momentum": 0.99, "gamma_constraint": null, "trainable": true, "beta_initializer": {"config": {}, "class_name": "Zeros"}, "axis": 3, "center": true, "beta_regularizer": null, "epsilon": 0.001, "scale": true, "moving_mean_initializer": {"config": {}, "class_name": "Zeros"}, "gamma_regularizer": null, "name": "bn3a_branch1", "beta_constraint": null, "gamma_initializer": {"config": {}, "class_name": "Ones"}, "moving_variance_initializer": {"config": {}, "class_name": "Ones"}}, "inbound_nodes": [[["res3a_branch1", 0, 0, {}]]], "class_name": "BatchNormalization"}, {"name": "add_148", "config": {"name": "add_148", "trainable": true}, "inbound_nodes": [[["bn3a_branch2c", 0, 0, {}], ["bn3a_branch1", 0, 0, {}]]], "class_name": "Add"}, {"name": "activation_494", "config": {"name": "activation_494", "activation": "relu", "trainable": true}, "inbound_nodes": [[["add_148", 0, 0, {}]]], "class_name": "Activation"}, {"name": "res3b_branch2a", "config": {"filters": 128, "kernel_size": [1, 1], "trainable": true, "data_format": "channels_last", "dilation_rate": [1, 1], "bias_constraint": null, "activation": "linear", "strides": [1, 1], "bias_initializer": {"config": {"seed": null, "mode": "fan_avg", "scale": 1.0, "distribution": "uniform"}, "class_name": "VarianceScaling"}, "kernel_constraint": null, "kernel_initializer": {"config": {"seed": null, "mode": "fan_avg", "scale": 1.0, "distribution": "uniform"}, "class_name": "VarianceScaling"}, "padding": "valid", "use_bias": true, "name": "res3b_branch2a", "bias_regularizer": null, "kernel_regularizer": null, "activity_regularizer": null}, "inbound_nodes": [[["activation_494", 0, 0, {}]]], "class_name": "Conv2D"}, {"name": "bn3b_branch2a", "config": {"momentum": 0.99, "gamma_constraint": null, "trainable": true, "beta_initializer": {"config": {}, "class_name": "Zeros"}, "axis": 3, "center": true, "beta_regularizer": null, "epsilon": 0.001, "scale": true, "moving_mean_initializer": {"config": {}, "class_name": "Zeros"}, "gamma_regularizer": null, "name": "bn3b_branch2a", "beta_constraint": null, "gamma_initializer": {"config": {}, "class_name": "Ones"}, "moving_variance_initializer": {"config": {}, "class_name": "Ones"}}, "inbound_nodes": [[["res3b_branch2a", 0, 0, {}]]], "class_name": "BatchNormalization"}, {"name": "activation_495", "config": {"name": "activation_495", "activation": "relu", "trainable": true}, "inbound_nodes": [[["bn3b_branch2a", 0, 0, {}]]], "class_name": "Activation"}, {"name": "res3b_branch2b", "config": {"filters": 128, "kernel_size": [3, 3], "trainable": true, "data_format": "channels_last", "dilation_rate": [1, 1], "bias_constraint": null, "activation": "linear", "strides": [1, 1], "bias_initializer": {"config": {"seed": null, "mode": "fan_avg", "scale": 1.0, "distribution": "uniform"}, "class_name": "VarianceScaling"}, "kernel_constraint": null, "kernel_initializer": {"config": {"seed": null, "mode": "fan_avg", "scale": 1.0, "distribution": "uniform"}, "class_name": "VarianceScaling"}, "padding": "same", "use_bias": true, "name": "res3b_branch2b", "bias_regularizer": null, "kernel_regularizer": null, "activity_regularizer": null}, "inbound_nodes": [[["activation_495", 0, 0, {}]]], "class_name": "Conv2D"}, {"name": "bn3b_branch2b", "config": {"momentum": 0.99, "gamma_constraint": null, "trainable": true, "beta_initializer": {"config": {}, "class_name": "Zeros"}, "axis": 3, "center": true, "beta_regularizer": null, "epsilon": 0.001, "scale": true, "moving_mean_initializer": {"config": {}, "class_name": "Zeros"}, "gamma_regularizer": null, "name": "bn3b_branch2b", "beta_constraint": null, "gamma_initializer": {"config": {}, "class_name": "Ones"}, "moving_variance_initializer": {"config": {}, "class_name": "Ones"}}, "inbound_nodes": [[["res3b_branch2b", 0, 0, {}]]], "class_name": "BatchNormalization"}, {"name": "activation_496", "config": {"name": "activation_496", "activation": "relu", "trainable": true}, "inbound_nodes": [[["bn3b_branch2b", 0, 0, {}]]], "class_name": "Activation"}, {"name": "res3b_branch2c", "config": {"filters": 512, "kernel_size": [1, 1], "trainable": true, "data_format": "channels_last", "dilation_rate": [1, 1], "bias_constraint": null, "activation": "linear", "strides": [1, 1], "bias_initializer": {"config": {"seed": null, "mode": "fan_avg", "scale": 1.0, "distribution": "uniform"}, "class_name": "VarianceScaling"}, "kernel_constraint": null, "kernel_initializer": {"config": {"seed": null, "mode": "fan_avg", "scale": 1.0, "distribution": "uniform"}, "class_name": "VarianceScaling"}, "padding": "valid", "use_bias": true, "name": "res3b_branch2c", "bias_regularizer": null, "kernel_regularizer": null, "activity_regularizer": null}, "inbound_nodes": [[["activation_496", 0, 0, {}]]], "class_name": "Conv2D"}, {"name": "bn3b_branch2c", "config": {"momentum": 0.99, "gamma_constraint": null, "trainable": true, "beta_initializer": {"config": {}, "class_name": "Zeros"}, "axis": 3, "center": true, "beta_regularizer": null, "epsilon": 0.001, "scale": true, "moving_mean_initializer": {"config": {}, "class_name": "Zeros"}, "gamma_regularizer": null, "name": "bn3b_branch2c", "beta_constraint": null, "gamma_initializer": {"config": {}, "class_name": "Ones"}, "moving_variance_initializer": {"config": {}, "class_name": "Ones"}}, "inbound_nodes": [[["res3b_branch2c", 0, 0, {}]]], "class_name": "BatchNormalization"}, {"name": "add_149", "config": {"name": "add_149", "trainable": true}, "inbound_nodes": [[["bn3b_branch2c", 0, 0, {}], ["activation_494", 0, 0, {}]]], "class_name": "Add"}, {"name": "activation_497", "config": {"name": "activation_497", "activation": "relu", "trainable": true}, "inbound_nodes": [[["add_149", 0, 0, {}]]], "class_name": "Activation"}, {"name": "res3c_branch2a", "config": {"filters": 128, "kernel_size": [1, 1], "trainable": true, "data_format": "channels_last", "dilation_rate": [1, 1], "bias_constraint": null, "activation": "linear", "strides": [1, 1], "bias_initializer": {"config": {"seed": null, "mode": "fan_avg", "scale": 1.0, "distribution": "uniform"}, "class_name": "VarianceScaling"}, "kernel_constraint": null, "kernel_initializer": {"config": {"seed": null, "mode": "fan_avg", "scale": 1.0, "distribution": "uniform"}, "class_name": "VarianceScaling"}, "padding": "valid", "use_bias": true, "name": "res3c_branch2a", "bias_regularizer": null, "kernel_regularizer": null, "activity_regularizer": null}, "inbound_nodes": [[["activation_497", 0, 0, {}]]], "class_name": "Conv2D"}, {"name": "bn3c_branch2a", "config": {"momentum": 0.99, "gamma_constraint": null, "trainable": true, "beta_initializer": {"config": {}, "class_name": "Zeros"}, "axis": 3, "center": true, "beta_regularizer": null, "epsilon": 0.001, "scale": true, "moving_mean_initializer": {"config": {}, "class_name": "Zeros"}, "gamma_regularizer": null, "name": "bn3c_branch2a", "beta_constraint": null, "gamma_initializer": {"config": {}, "class_name": "Ones"}, "moving_variance_initializer": {"config": {}, "class_name": "Ones"}}, "inbound_nodes": [[["res3c_branch2a", 0, 0, {}]]], "class_name": "BatchNormalization"}, {"name": "activation_498", "config": {"name": "activation_498", "activation": "relu", "trainable": true}, "inbound_nodes": [[["bn3c_branch2a", 0, 0, {}]]], "class_name": "Activation"}, {"name": "res3c_branch2b", "config": {"filters": 128, "kernel_size": [3, 3], "trainable": true, "data_format": "channels_last", "dilation_rate": [1, 1], "bias_constraint": null, "activation": "linear", "strides": [1, 1], "bias_initializer": {"config": {"seed": null, "mode": "fan_avg", "scale": 1.0, "distribution": "uniform"}, "class_name": "VarianceScaling"}, "kernel_constraint": null, "kernel_initializer": {"config": {"seed": null, "mode": "fan_avg", "scale": 1.0, "distribution": "uniform"}, "class_name": "VarianceScaling"}, "padding": "same", "use_bias": true, "name": "res3c_branch2b", "bias_regularizer": null, "kernel_regularizer": null, "activity_regularizer": null}, "inbound_nodes": [[["activation_498", 0, 0, {}]]], "class_name": "Conv2D"}, {"name": "bn3c_branch2b", "config": {"momentum": 0.99, "gamma_constraint": null, "trainable": true, "beta_initializer": {"config": {}, "class_name": "Zeros"}, "axis": 3, "center": true, "beta_regularizer": null, "epsilon": 0.001, "scale": true, "moving_mean_initializer": {"config": {}, "class_name": "Zeros"}, "gamma_regularizer": null, "name": "bn3c_branch2b", "beta_constraint": null, "gamma_initializer": {"config": {}, "class_name": "Ones"}, "moving_variance_initializer": {"config": {}, "class_name": "Ones"}}, "inbound_nodes": [[["res3c_branch2b", 0, 0, {}]]], "class_name": "BatchNormalization"}, {"name": "activation_499", "config": {"name": "activation_499", "activation": "relu", "trainable": true}, "inbound_nodes": [[["bn3c_branch2b", 0, 0, {}]]], "class_name": "Activation"}, {"name": "res3c_branch2c", "config": {"filters": 512, "kernel_size": [1, 1], "trainable": true, "data_format": "channels_last", "dilation_rate": [1, 1], "bias_constraint": null, "activation": "linear", "strides": [1, 1], "bias_initializer": {"config": {"seed": null, "mode": "fan_avg", "scale": 1.0, "distribution": "uniform"}, "class_name": "VarianceScaling"}, "kernel_constraint": null, "kernel_initializer": {"config": {"seed": null, "mode": "fan_avg", "scale": 1.0, "distribution": "uniform"}, "class_name": "VarianceScaling"}, "padding": "valid", "use_bias": true, "name": "res3c_branch2c", "bias_regularizer": null, "kernel_regularizer": null, "activity_regularizer": null}, "inbound_nodes": [[["activation_499", 0, 0, {}]]], "class_name": "Conv2D"}, {"name": "bn3c_branch2c", "config": {"momentum": 0.99, "gamma_constraint": null, "trainable": true, "beta_initializer": {"config": {}, "class_name": "Zeros"}, "axis": 3, "center": true, "beta_regularizer": null, "epsilon": 0.001, "scale": true, "moving_mean_initializer": {"config": {}, "class_name": "Zeros"}, "gamma_regularizer": null, "name": "bn3c_branch2c", "beta_constraint": null, "gamma_initializer": {"config": {}, "class_name": "Ones"}, "moving_variance_initializer": {"config": {}, "class_name": "Ones"}}, "inbound_nodes": [[["res3c_branch2c", 0, 0, {}]]], "class_name": "BatchNormalization"}, {"name": "add_150", "config": {"name": "add_150", "trainable": true}, "inbound_nodes": [[["bn3c_branch2c", 0, 0, {}], ["activation_497", 0, 0, {}]]], "class_name": "Add"}, {"name": "activation_500", "config": {"name": "activation_500", "activation": "relu", "trainable": true}, "inbound_nodes": [[["add_150", 0, 0, {}]]], "class_name": "Activation"}, {"name": "res3d_branch2a", "config": {"filters": 128, "kernel_size": [1, 1], "trainable": true, "data_format": "channels_last", "dilation_rate": [1, 1], "bias_constraint": null, "activation": "linear", "strides": [1, 1], "bias_initializer": {"config": {"seed": null, "mode": "fan_avg", "scale": 1.0, "distribution": "uniform"}, "class_name": "VarianceScaling"}, "kernel_constraint": null, "kernel_initializer": {"config": {"seed": null, "mode": "fan_avg", "scale": 1.0, "distribution": "uniform"}, "class_name": "VarianceScaling"}, "padding": "valid", "use_bias": true, "name": "res3d_branch2a", "bias_regularizer": null, "kernel_regularizer": null, "activity_regularizer": null}, "inbound_nodes": [[["activation_500", 0, 0, {}]]], "class_name": "Conv2D"}, {"name": "bn3d_branch2a", "config": {"momentum": 0.99, "gamma_constraint": null, "trainable": true, "beta_initializer": {"config": {}, "class_name": "Zeros"}, "axis": 3, "center": true, "beta_regularizer": null, "epsilon": 0.001, "scale": true, "moving_mean_initializer": {"config": {}, "class_name": "Zeros"}, "gamma_regularizer": null, "name": "bn3d_branch2a", "beta_constraint": null, "gamma_initializer": {"config": {}, "class_name": "Ones"}, "moving_variance_initializer": {"config": {}, "class_name": "Ones"}}, "inbound_nodes": [[["res3d_branch2a", 0, 0, {}]]], "class_name": "BatchNormalization"}, {"name": "activation_501", "config": {"name": "activation_501", "activation": "relu", "trainable": true}, "inbound_nodes": [[["bn3d_branch2a", 0, 0, {}]]], "class_name": "Activation"}, {"name": "res3d_branch2b", "config": {"filters": 128, "kernel_size": [3, 3], "trainable": true, "data_format": "channels_last", "dilation_rate": [1, 1], "bias_constraint": null, "activation": "linear", "strides": [1, 1], "bias_initializer": {"config": {"seed": null, "mode": "fan_avg", "scale": 1.0, "distribution": "uniform"}, "class_name": "VarianceScaling"}, "kernel_constraint": null, "kernel_initializer": {"config": {"seed": null, "mode": "fan_avg", "scale": 1.0, "distribution": "uniform"}, "class_name": "VarianceScaling"}, "padding": "same", "use_bias": true, "name": "res3d_branch2b", "bias_regularizer": null, "kernel_regularizer": null, "activity_regularizer": null}, "inbound_nodes": [[["activation_501", 0, 0, {}]]], "class_name": "Conv2D"}, {"name": "bn3d_branch2b", "config": {"momentum": 0.99, "gamma_constraint": null, "trainable": true, "beta_initializer": {"config": {}, "class_name": "Zeros"}, "axis": 3, "center": true, "beta_regularizer": null, "epsilon": 0.001, "scale": true, "moving_mean_initializer": {"config": {}, "class_name": "Zeros"}, "gamma_regularizer": null, "name": "bn3d_branch2b", "beta_constraint": null, "gamma_initializer": {"config": {}, "class_name": "Ones"}, "moving_variance_initializer": {"config": {}, "class_name": "Ones"}}, "inbound_nodes": [[["res3d_branch2b", 0, 0, {}]]], "class_name": "BatchNormalization"}, {"name": "activation_502", "config": {"name": "activation_502", "activation": "relu", "trainable": true}, "inbound_nodes": [[["bn3d_branch2b", 0, 0, {}]]], "class_name": "Activation"}, {"name": "res3d_branch2c", "config": {"filters": 512, "kernel_size": [1, 1], "trainable": true, "data_format": "channels_last", "dilation_rate": [1, 1], "bias_constraint": null, "activation": "linear", "strides": [1, 1], "bias_initializer": {"config": {"seed": null, "mode": "fan_avg", "scale": 1.0, "distribution": "uniform"}, "class_name": "VarianceScaling"}, "kernel_constraint": null, "kernel_initializer": {"config": {"seed": null, "mode": "fan_avg", "scale": 1.0, "distribution": "uniform"}, "class_name": "VarianceScaling"}, "padding": "valid", "use_bias": true, "name": "res3d_branch2c", "bias_regularizer": null, "kernel_regularizer": null, "activity_regularizer": null}, "inbound_nodes": [[["activation_502", 0, 0, {}]]], "class_name": "Conv2D"}, {"name": "bn3d_branch2c", "config": {"momentum": 0.99, "gamma_constraint": null, "trainable": true, "beta_initializer": {"config": {}, "class_name": "Zeros"}, "axis": 3, "center": true, "beta_regularizer": null, "epsilon": 0.001, "scale": true, "moving_mean_initializer": {"config": {}, "class_name": "Zeros"}, "gamma_regularizer": null, "name": "bn3d_branch2c", "beta_constraint": null, "gamma_initializer": {"config": {}, "class_name": "Ones"}, "moving_variance_initializer": {"config": {}, "class_name": "Ones"}}, "inbound_nodes": [[["res3d_branch2c", 0, 0, {}]]], "class_name": "BatchNormalization"}, {"name": "add_151", "config": {"name": "add_151", "trainable": true}, "inbound_nodes": [[["bn3d_branch2c", 0, 0, {}], ["activation_500", 0, 0, {}]]], "class_name": "Add"}, {"name": "activation_503", "config": {"name": "activation_503", "activation": "relu", "trainable": true}, "inbound_nodes": [[["add_151", 0, 0, {}]]], "class_name": "Activation"}, {"name": "res4a_branch2a", "config": {"filters": 256, "kernel_size": [1, 1], "trainable": true, "data_format": "channels_last", "dilation_rate": [1, 1], "bias_constraint": null, "activation": "linear", "strides": [2, 2], "bias_initializer": {"config": {"seed": null, "mode": "fan_avg", "scale": 1.0, "distribution": "uniform"}, "class_name": "VarianceScaling"}, "kernel_constraint": null, "kernel_initializer": {"config": {"seed": null, "mode": "fan_avg", "scale": 1.0, "distribution": "uniform"}, "class_name": "VarianceScaling"}, "padding": "valid", "use_bias": true, "name": "res4a_branch2a", "bias_regularizer": null, "kernel_regularizer": null, "activity_regularizer": null}, "inbound_nodes": [[["activation_503", 0, 0, {}]]], "class_name": "Conv2D"}, {"name": "bn4a_branch2a", "config": {"momentum": 0.99, "gamma_constraint": null, "trainable": true, "beta_initializer": {"config": {}, "class_name": "Zeros"}, "axis": 3, "center": true, "beta_regularizer": null, "epsilon": 0.001, "scale": true, "moving_mean_initializer": {"config": {}, "class_name": "Zeros"}, "gamma_regularizer": null, "name": "bn4a_branch2a", "beta_constraint": null, "gamma_initializer": {"config": {}, "class_name": "Ones"}, "moving_variance_initializer": {"config": {}, "class_name": "Ones"}}, "inbound_nodes": [[["res4a_branch2a", 0, 0, {}]]], "class_name": "BatchNormalization"}, {"name": "activation_504", "config": {"name": "activation_504", "activation": "relu", "trainable": true}, "inbound_nodes": [[["bn4a_branch2a", 0, 0, {}]]], "class_name": "Activation"}, {"name": "res4a_branch2b", "config": {"filters": 256, "kernel_size": [3, 3], "trainable": true, "data_format": "channels_last", "dilation_rate": [1, 1], "bias_constraint": null, "activation": "linear", "strides": [1, 1], "bias_initializer": {"config": {"seed": null, "mode": "fan_avg", "scale": 1.0, "distribution": "uniform"}, "class_name": "VarianceScaling"}, "kernel_constraint": null, "kernel_initializer": {"config": {"seed": null, "mode": "fan_avg", "scale": 1.0, "distribution": "uniform"}, "class_name": "VarianceScaling"}, "padding": "same", "use_bias": true, "name": "res4a_branch2b", "bias_regularizer": null, "kernel_regularizer": null, "activity_regularizer": null}, "inbound_nodes": [[["activation_504", 0, 0, {}]]], "class_name": "Conv2D"}, {"name": "bn4a_branch2b", "config": {"momentum": 0.99, "gamma_constraint": null, "trainable": true, "beta_initializer": {"config": {}, "class_name": "Zeros"}, "axis": 3, "center": true, "beta_regularizer": null, "epsilon": 0.001, "scale": true, "moving_mean_initializer": {"config": {}, "class_name": "Zeros"}, "gamma_regularizer": null, "name": "bn4a_branch2b", "beta_constraint": null, "gamma_initializer": {"config": {}, "class_name": "Ones"}, "moving_variance_initializer": {"config": {}, "class_name": "Ones"}}, "inbound_nodes": [[["res4a_branch2b", 0, 0, {}]]], "class_name": "BatchNormalization"}, {"name": "activation_505", "config": {"name": "activation_505", "activation": "relu", "trainable": true}, "inbound_nodes": [[["bn4a_branch2b", 0, 0, {}]]], "class_name": "Activation"}, {"name": "res4a_branch2c", "config": {"filters": 1024, "kernel_size": [1, 1], "trainable": true, "data_format": "channels_last", "dilation_rate": [1, 1], "bias_constraint": null, "activation": "linear", "strides": [1, 1], "bias_initializer": {"config": {"seed": null, "mode": "fan_avg", "scale": 1.0, "distribution": "uniform"}, "class_name": "VarianceScaling"}, "kernel_constraint": null, "kernel_initializer": {"config": {"seed": null, "mode": "fan_avg", "scale": 1.0, "distribution": "uniform"}, "class_name": "VarianceScaling"}, "padding": "valid", "use_bias": true, "name": "res4a_branch2c", "bias_regularizer": null, "kernel_regularizer": null, "activity_regularizer": null}, "inbound_nodes": [[["activation_505", 0, 0, {}]]], "class_name": "Conv2D"}, {"name": "res4a_branch1", "config": {"filters": 1024, "kernel_size": [1, 1], "trainable": true, "data_format": "channels_last", "dilation_rate": [1, 1], "bias_constraint": null, "activation": "linear", "strides": [2, 2], "bias_initializer": {"config": {"seed": null, "mode": "fan_avg", "scale": 1.0, "distribution": "uniform"}, "class_name": "VarianceScaling"}, "kernel_constraint": null, "kernel_initializer": {"config": {"seed": null, "mode": "fan_avg", "scale": 1.0, "distribution": "uniform"}, "class_name": "VarianceScaling"}, "padding": "valid", "use_bias": true, "name": "res4a_branch1", "bias_regularizer": null, "kernel_regularizer": null, "activity_regularizer": null}, "inbound_nodes": [[["activation_503", 0, 0, {}]]], "class_name": "Conv2D"}, {"name": "bn4a_branch2c", "config": {"momentum": 0.99, "gamma_constraint": null, "trainable": true, "beta_initializer": {"config": {}, "class_name": "Zeros"}, "axis": 3, "center": true, "beta_regularizer": null, "epsilon": 0.001, "scale": true, "moving_mean_initializer": {"config": {}, "class_name": "Zeros"}, "gamma_regularizer": null, "name": "bn4a_branch2c", "beta_constraint": null, "gamma_initializer": {"config": {}, "class_name": "Ones"}, "moving_variance_initializer": {"config": {}, "class_name": "Ones"}}, "inbound_nodes": [[["res4a_branch2c", 0, 0, {}]]], "class_name": "BatchNormalization"}, {"name": "bn4a_branch1", "config": {"momentum": 0.99, "gamma_constraint": null, "trainable": true, "beta_initializer": {"config": {}, "class_name": "Zeros"}, "axis": 3, "center": true, "beta_regularizer": null, "epsilon": 0.001, "scale": true, "moving_mean_initializer": {"config": {}, "class_name": "Zeros"}, "gamma_regularizer": null, "name": "bn4a_branch1", "beta_constraint": null, "gamma_initializer": {"config": {}, "class_name": "Ones"}, "moving_variance_initializer": {"config": {}, "class_name": "Ones"}}, "inbound_nodes": [[["res4a_branch1", 0, 0, {}]]], "class_name": "BatchNormalization"}, {"name": "add_152", "config": {"name": "add_152", "trainable": true}, "inbound_nodes": [[["bn4a_branch2c", 0, 0, {}], ["bn4a_branch1", 0, 0, {}]]], "class_name": "Add"}, {"name": "activation_506", "config": {"name": "activation_506", "activation": "relu", "trainable": true}, "inbound_nodes": [[["add_152", 0, 0, {}]]], "class_name": "Activation"}, {"name": "res4b_branch2a", "config": {"filters": 256, "kernel_size": [1, 1], "trainable": true, "data_format": "channels_last", "dilation_rate": [1, 1], "bias_constraint": null, "activation": "linear", "strides": [1, 1], "bias_initializer": {"config": {"seed": null, "mode": "fan_avg", "scale": 1.0, "distribution": "uniform"}, "class_name": "VarianceScaling"}, "kernel_constraint": null, "kernel_initializer": {"config": {"seed": null, "mode": "fan_avg", "scale": 1.0, "distribution": "uniform"}, "class_name": "VarianceScaling"}, "padding": "valid", "use_bias": true, "name": "res4b_branch2a", "bias_regularizer": null, "kernel_regularizer": null, "activity_regularizer": null}, "inbound_nodes": [[["activation_506", 0, 0, {}]]], "class_name": "Conv2D"}, {"name": "bn4b_branch2a", "config": {"momentum": 0.99, "gamma_constraint": null, "trainable": true, "beta_initializer": {"config": {}, "class_name": "Zeros"}, "axis": 3, "center": true, "beta_regularizer": null, "epsilon": 0.001, "scale": true, "moving_mean_initializer": {"config": {}, "class_name": "Zeros"}, "gamma_regularizer": null, "name": "bn4b_branch2a", "beta_constraint": null, "gamma_initializer": {"config": {}, "class_name": "Ones"}, "moving_variance_initializer": {"config": {}, "class_name": "Ones"}}, "inbound_nodes": [[["res4b_branch2a", 0, 0, {}]]], "class_name": "BatchNormalization"}, {"name": "activation_507", "config": {"name": "activation_507", "activation": "relu", "trainable": true}, "inbound_nodes": [[["bn4b_branch2a", 0, 0, {}]]], "class_name": "Activation"}, {"name": "res4b_branch2b", "config": {"filters": 256, "kernel_size": [3, 3], "trainable": true, "data_format": "channels_last", "dilation_rate": [1, 1], "bias_constraint": null, "activation": "linear", "strides": [1, 1], "bias_initializer": {"config": {"seed": null, "mode": "fan_avg", "scale": 1.0, "distribution": "uniform"}, "class_name": "VarianceScaling"}, "kernel_constraint": null, "kernel_initializer": {"config": {"seed": null, "mode": "fan_avg", "scale": 1.0, "distribution": "uniform"}, "class_name": "VarianceScaling"}, "padding": "same", "use_bias": true, "name": "res4b_branch2b", "bias_regularizer": null, "kernel_regularizer": null, "activity_regularizer": null}, "inbound_nodes": [[["activation_507", 0, 0, {}]]], "class_name": "Conv2D"}, {"name": "bn4b_branch2b", "config": {"momentum": 0.99, "gamma_constraint": null, "trainable": true, "beta_initializer": {"config": {}, "class_name": "Zeros"}, "axis": 3, "center": true, "beta_regularizer": null, "epsilon": 0.001, "scale": true, "moving_mean_initializer": {"config": {}, "class_name": "Zeros"}, "gamma_regularizer": null, "name": "bn4b_branch2b", "beta_constraint": null, "gamma_initializer": {"config": {}, "class_name": "Ones"}, "moving_variance_initializer": {"config": {}, "class_name": "Ones"}}, "inbound_nodes": [[["res4b_branch2b", 0, 0, {}]]], "class_name": "BatchNormalization"}, {"name": "activation_508", "config": {"name": "activation_508", "activation": "relu", "trainable": true}, "inbound_nodes": [[["bn4b_branch2b", 0, 0, {}]]], "class_name": "Activation"}, {"name": "res4b_branch2c", "config": {"filters": 1024, "kernel_size": [1, 1], "trainable": true, "data_format": "channels_last", "dilation_rate": [1, 1], "bias_constraint": null, "activation": "linear", "strides": [1, 1], "bias_initializer": {"config": {"seed": null, "mode": "fan_avg", "scale": 1.0, "distribution": "uniform"}, "class_name": "VarianceScaling"}, "kernel_constraint": null, "kernel_initializer": {"config": {"seed": null, "mode": "fan_avg", "scale": 1.0, "distribution": "uniform"}, "class_name": "VarianceScaling"}, "padding": "valid", "use_bias": true, "name": "res4b_branch2c", "bias_regularizer": null, "kernel_regularizer": null, "activity_regularizer": null}, "inbound_nodes": [[["activation_508", 0, 0, {}]]], "class_name": "Conv2D"}, {"name": "bn4b_branch2c", "config": {"momentum": 0.99, "gamma_constraint": null, "trainable": true, "beta_initializer": {"config": {}, "class_name": "Zeros"}, "axis": 3, "center": true, "beta_regularizer": null, "epsilon": 0.001, "scale": true, "moving_mean_initializer": {"config": {}, "class_name": "Zeros"}, "gamma_regularizer": null, "name": "bn4b_branch2c", "beta_constraint": null, "gamma_initializer": {"config": {}, "class_name": "Ones"}, "moving_variance_initializer": {"config": {}, "class_name": "Ones"}}, "inbound_nodes": [[["res4b_branch2c", 0, 0, {}]]], "class_name": "BatchNormalization"}, {"name": "add_153", "config": {"name": "add_153", "trainable": true}, "inbound_nodes": [[["bn4b_branch2c", 0, 0, {}], ["activation_506", 0, 0, {}]]], "class_name": "Add"}, {"name": "activation_509", "config": {"name": "activation_509", "activation": "relu", "trainable": true}, "inbound_nodes": [[["add_153", 0, 0, {}]]], "class_name": "Activation"}, {"name": "res4c_branch2a", "config": {"filters": 256, "kernel_size": [1, 1], "trainable": true, "data_format": "channels_last", "dilation_rate": [1, 1], "bias_constraint": null, "activation": "linear", "strides": [1, 1], "bias_initializer": {"config": {"seed": null, "mode": "fan_avg", "scale": 1.0, "distribution": "uniform"}, "class_name": "VarianceScaling"}, "kernel_constraint": null, "kernel_initializer": {"config": {"seed": null, "mode": "fan_avg", "scale": 1.0, "distribution": "uniform"}, "class_name": "VarianceScaling"}, "padding": "valid", "use_bias": true, "name": "res4c_branch2a", "bias_regularizer": null, "kernel_regularizer": null, "activity_regularizer": null}, "inbound_nodes": [[["activation_509", 0, 0, {}]]], "class_name": "Conv2D"}, {"name": "bn4c_branch2a", "config": {"momentum": 0.99, "gamma_constraint": null, "trainable": true, "beta_initializer": {"config": {}, "class_name": "Zeros"}, "axis": 3, "center": true, "beta_regularizer": null, "epsilon": 0.001, "scale": true, "moving_mean_initializer": {"config": {}, "class_name": "Zeros"}, "gamma_regularizer": null, "name": "bn4c_branch2a", "beta_constraint": null, "gamma_initializer": {"config": {}, "class_name": "Ones"}, "moving_variance_initializer": {"config": {}, "class_name": "Ones"}}, "inbound_nodes": [[["res4c_branch2a", 0, 0, {}]]], "class_name": "BatchNormalization"}, {"name": "activation_510", "config": {"name": "activation_510", "activation": "relu", "trainable": true}, "inbound_nodes": [[["bn4c_branch2a", 0, 0, {}]]], "class_name": "Activation"}, {"name": "res4c_branch2b", "config": {"filters": 256, "kernel_size": [3, 3], "trainable": true, "data_format": "channels_last", "dilation_rate": [1, 1], "bias_constraint": null, "activation": "linear", "strides": [1, 1], "bias_initializer": {"config": {"seed": null, "mode": "fan_avg", "scale": 1.0, "distribution": "uniform"}, "class_name": "VarianceScaling"}, "kernel_constraint": null, "kernel_initializer": {"config": {"seed": null, "mode": "fan_avg", "scale": 1.0, "distribution": "uniform"}, "class_name": "VarianceScaling"}, "padding": "same", "use_bias": true, "name": "res4c_branch2b", "bias_regularizer": null, "kernel_regularizer": null, "activity_regularizer": null}, "inbound_nodes": [[["activation_510", 0, 0, {}]]], "class_name": "Conv2D"}, {"name": "bn4c_branch2b", "config": {"momentum": 0.99, "gamma_constraint": null, "trainable": true, "beta_initializer": {"config": {}, "class_name": "Zeros"}, "axis": 3, "center": true, "beta_regularizer": null, "epsilon": 0.001, "scale": true, "moving_mean_initializer": {"config": {}, "class_name": "Zeros"}, "gamma_regularizer": null, "name": "bn4c_branch2b", "beta_constraint": null, "gamma_initializer": {"config": {}, "class_name": "Ones"}, "moving_variance_initializer": {"config": {}, "class_name": "Ones"}}, "inbound_nodes": [[["res4c_branch2b", 0, 0, {}]]], "class_name": "BatchNormalization"}, {"name": "activation_511", "config": {"name": "activation_511", "activation": "relu", "trainable": true}, "inbound_nodes": [[["bn4c_branch2b", 0, 0, {}]]], "class_name": "Activation"}, {"name": "res4c_branch2c", "config": {"filters": 1024, "kernel_size": [1, 1], "trainable": true, "data_format": "channels_last", "dilation_rate": [1, 1], "bias_constraint": null, "activation": "linear", "strides": [1, 1], "bias_initializer": {"config": {"seed": null, "mode": "fan_avg", "scale": 1.0, "distribution": "uniform"}, "class_name": "VarianceScaling"}, "kernel_constraint": null, "kernel_initializer": {"config": {"seed": null, "mode": "fan_avg", "scale": 1.0, "distribution": "uniform"}, "class_name": "VarianceScaling"}, "padding": "valid", "use_bias": true, "name": "res4c_branch2c", "bias_regularizer": null, "kernel_regularizer": null, "activity_regularizer": null}, "inbound_nodes": [[["activation_511", 0, 0, {}]]], "class_name": "Conv2D"}, {"name": "bn4c_branch2c", "config": {"momentum": 0.99, "gamma_constraint": null, "trainable": true, "beta_initializer": {"config": {}, "class_name": "Zeros"}, "axis": 3, "center": true, "beta_regularizer": null, "epsilon": 0.001, "scale": true, "moving_mean_initializer": {"config": {}, "class_name": "Zeros"}, "gamma_regularizer": null, "name": "bn4c_branch2c", "beta_constraint": null, "gamma_initializer": {"config": {}, "class_name": "Ones"}, "moving_variance_initializer": {"config": {}, "class_name": "Ones"}}, "inbound_nodes": [[["res4c_branch2c", 0, 0, {}]]], "class_name": "BatchNormalization"}, {"name": "add_154", "config": {"name": "add_154", "trainable": true}, "inbound_nodes": [[["bn4c_branch2c", 0, 0, {}], ["activation_509", 0, 0, {}]]], "class_name": "Add"}, {"name": "activation_512", "config": {"name": "activation_512", "activation": "relu", "trainable": true}, "inbound_nodes": [[["add_154", 0, 0, {}]]], "class_name": "Activation"}, {"name": "res4d_branch2a", "config": {"filters": 256, "kernel_size": [1, 1], "trainable": true, "data_format": "channels_last", "dilation_rate": [1, 1], "bias_constraint": null, "activation": "linear", "strides": [1, 1], "bias_initializer": {"config": {"seed": null, "mode": "fan_avg", "scale": 1.0, "distribution": "uniform"}, "class_name": "VarianceScaling"}, "kernel_constraint": null, "kernel_initializer": {"config": {"seed": null, "mode": "fan_avg", "scale": 1.0, "distribution": "uniform"}, "class_name": "VarianceScaling"}, "padding": "valid", "use_bias": true, "name": "res4d_branch2a", "bias_regularizer": null, "kernel_regularizer": null, "activity_regularizer": null}, "inbound_nodes": [[["activation_512", 0, 0, {}]]], "class_name": "Conv2D"}, {"name": "bn4d_branch2a", "config": {"momentum": 0.99, "gamma_constraint": null, "trainable": true, "beta_initializer": {"config": {}, "class_name": "Zeros"}, "axis": 3, "center": true, "beta_regularizer": null, "epsilon": 0.001, "scale": true, "moving_mean_initializer": {"config": {}, "class_name": "Zeros"}, "gamma_regularizer": null, "name": "bn4d_branch2a", "beta_constraint": null, "gamma_initializer": {"config": {}, "class_name": "Ones"}, "moving_variance_initializer": {"config": {}, "class_name": "Ones"}}, "inbound_nodes": [[["res4d_branch2a", 0, 0, {}]]], "class_name": "BatchNormalization"}, {"name": "activation_513", "config": {"name": "activation_513", "activation": "relu", "trainable": true}, "inbound_nodes": [[["bn4d_branch2a", 0, 0, {}]]], "class_name": "Activation"}, {"name": "res4d_branch2b", "config": {"filters": 256, "kernel_size": [3, 3], "trainable": true, "data_format": "channels_last", "dilation_rate": [1, 1], "bias_constraint": null, "activation": "linear", "strides": [1, 1], "bias_initializer": {"config": {"seed": null, "mode": "fan_avg", "scale": 1.0, "distribution": "uniform"}, "class_name": "VarianceScaling"}, "kernel_constraint": null, "kernel_initializer": {"config": {"seed": null, "mode": "fan_avg", "scale": 1.0, "distribution": "uniform"}, "class_name": "VarianceScaling"}, "padding": "same", "use_bias": true, "name": "res4d_branch2b", "bias_regularizer": null, "kernel_regularizer": null, "activity_regularizer": null}, "inbound_nodes": [[["activation_513", 0, 0, {}]]], "class_name": "Conv2D"}, {"name": "bn4d_branch2b", "config": {"momentum": 0.99, "gamma_constraint": null, "trainable": true, "beta_initializer": {"config": {}, "class_name": "Zeros"}, "axis": 3, "center": true, "beta_regularizer": null, "epsilon": 0.001, "scale": true, "moving_mean_initializer": {"config": {}, "class_name": "Zeros"}, "gamma_regularizer": null, "name": "bn4d_branch2b", "beta_constraint": null, "gamma_initializer": {"config": {}, "class_name": "Ones"}, "moving_variance_initializer": {"config": {}, "class_name": "Ones"}}, "inbound_nodes": [[["res4d_branch2b", 0, 0, {}]]], "class_name": "BatchNormalization"}, {"name": "activation_514", "config": {"name": "activation_514", "activation": "relu", "trainable": true}, "inbound_nodes": [[["bn4d_branch2b", 0, 0, {}]]], "class_name": "Activation"}, {"name": "res4d_branch2c", "config": {"filters": 1024, "kernel_size": [1, 1], "trainable": true, "data_format": "channels_last", "dilation_rate": [1, 1], "bias_constraint": null, "activation": "linear", "strides": [1, 1], "bias_initializer": {"config": {"seed": null, "mode": "fan_avg", "scale": 1.0, "distribution": "uniform"}, "class_name": "VarianceScaling"}, "kernel_constraint": null, "kernel_initializer": {"config": {"seed": null, "mode": "fan_avg", "scale": 1.0, "distribution": "uniform"}, "class_name": "VarianceScaling"}, "padding": "valid", "use_bias": true, "name": "res4d_branch2c", "bias_regularizer": null, "kernel_regularizer": null, "activity_regularizer": null}, "inbound_nodes": [[["activation_514", 0, 0, {}]]], "class_name": "Conv2D"}, {"name": "bn4d_branch2c", "config": {"momentum": 0.99, "gamma_constraint": null, "trainable": true, "beta_initializer": {"config": {}, "class_name": "Zeros"}, "axis": 3, "center": true, "beta_regularizer": null, "epsilon": 0.001, "scale": true, "moving_mean_initializer": {"config": {}, "class_name": "Zeros"}, "gamma_regularizer": null, "name": "bn4d_branch2c", "beta_constraint": null, "gamma_initializer": {"config": {}, "class_name": "Ones"}, "moving_variance_initializer": {"config": {}, "class_name": "Ones"}}, "inbound_nodes": [[["res4d_branch2c", 0, 0, {}]]], "class_name": "BatchNormalization"}, {"name": "add_155", "config": {"name": "add_155", "trainable": true}, "inbound_nodes": [[["bn4d_branch2c", 0, 0, {}], ["activation_512", 0, 0, {}]]], "class_name": "Add"}, {"name": "activation_515", "config": {"name": "activation_515", "activation": "relu", "trainable": true}, "inbound_nodes": [[["add_155", 0, 0, {}]]], "class_name": "Activation"}, {"name": "res4e_branch2a", "config": {"filters": 256, "kernel_size": [1, 1], "trainable": true, "data_format": "channels_last", "dilation_rate": [1, 1], "bias_constraint": null, "activation": "linear", "strides": [1, 1], "bias_initializer": {"config": {"seed": null, "mode": "fan_avg", "scale": 1.0, "distribution": "uniform"}, "class_name": "VarianceScaling"}, "kernel_constraint": null, "kernel_initializer": {"config": {"seed": null, "mode": "fan_avg", "scale": 1.0, "distribution": "uniform"}, "class_name": "VarianceScaling"}, "padding": "valid", "use_bias": true, "name": "res4e_branch2a", "bias_regularizer": null, "kernel_regularizer": null, "activity_regularizer": null}, "inbound_nodes": [[["activation_515", 0, 0, {}]]], "class_name": "Conv2D"}, {"name": "bn4e_branch2a", "config": {"momentum": 0.99, "gamma_constraint": null, "trainable": true, "beta_initializer": {"config": {}, "class_name": "Zeros"}, "axis": 3, "center": true, "beta_regularizer": null, "epsilon": 0.001, "scale": true, "moving_mean_initializer": {"config": {}, "class_name": "Zeros"}, "gamma_regularizer": null, "name": "bn4e_branch2a", "beta_constraint": null, "gamma_initializer": {"config": {}, "class_name": "Ones"}, "moving_variance_initializer": {"config": {}, "class_name": "Ones"}}, "inbound_nodes": [[["res4e_branch2a", 0, 0, {}]]], "class_name": "BatchNormalization"}, {"name": "activation_516", "config": {"name": "activation_516", "activation": "relu", "trainable": true}, "inbound_nodes": [[["bn4e_branch2a", 0, 0, {}]]], "class_name": "Activation"}, {"name": "res4e_branch2b", "config": {"filters": 256, "kernel_size": [3, 3], "trainable": true, "data_format": "channels_last", "dilation_rate": [1, 1], "bias_constraint": null, "activation": "linear", "strides": [1, 1], "bias_initializer": {"config": {"seed": null, "mode": "fan_avg", "scale": 1.0, "distribution": "uniform"}, "class_name": "VarianceScaling"}, "kernel_constraint": null, "kernel_initializer": {"config": {"seed": null, "mode": "fan_avg", "scale": 1.0, "distribution": "uniform"}, "class_name": "VarianceScaling"}, "padding": "same", "use_bias": true, "name": "res4e_branch2b", "bias_regularizer": null, "kernel_regularizer": null, "activity_regularizer": null}, "inbound_nodes": [[["activation_516", 0, 0, {}]]], "class_name": "Conv2D"}, {"name": "bn4e_branch2b", "config": {"momentum": 0.99, "gamma_constraint": null, "trainable": true, "beta_initializer": {"config": {}, "class_name": "Zeros"}, "axis": 3, "center": true, "beta_regularizer": null, "epsilon": 0.001, "scale": true, "moving_mean_initializer": {"config": {}, "class_name": "Zeros"}, "gamma_regularizer": null, "name": "bn4e_branch2b", "beta_constraint": null, "gamma_initializer": {"config": {}, "class_name": "Ones"}, "moving_variance_initializer": {"config": {}, "class_name": "Ones"}}, "inbound_nodes": [[["res4e_branch2b", 0, 0, {}]]], "class_name": "BatchNormalization"}, {"name": "activation_517", "config": {"name": "activation_517", "activation": "relu", "trainable": true}, "inbound_nodes": [[["bn4e_branch2b", 0, 0, {}]]], "class_name": "Activation"}, {"name": "res4e_branch2c", "config": {"filters": 1024, "kernel_size": [1, 1], "trainable": true, "data_format": "channels_last", "dilation_rate": [1, 1], "bias_constraint": null, "activation": "linear", "strides": [1, 1], "bias_initializer": {"config": {"seed": null, "mode": "fan_avg", "scale": 1.0, "distribution": "uniform"}, "class_name": "VarianceScaling"}, "kernel_constraint": null, "kernel_initializer": {"config": {"seed": null, "mode": "fan_avg", "scale": 1.0, "distribution": "uniform"}, "class_name": "VarianceScaling"}, "padding": "valid", "use_bias": true, "name": "res4e_branch2c", "bias_regularizer": null, "kernel_regularizer": null, "activity_regularizer": null}, "inbound_nodes": [[["activation_517", 0, 0, {}]]], "class_name": "Conv2D"}, {"name": "bn4e_branch2c", "config": {"momentum": 0.99, "gamma_constraint": null, "trainable": true, "beta_initializer": {"config": {}, "class_name": "Zeros"}, "axis": 3, "center": true, "beta_regularizer": null, "epsilon": 0.001, "scale": true, "moving_mean_initializer": {"config": {}, "class_name": "Zeros"}, "gamma_regularizer": null, "name": "bn4e_branch2c", "beta_constraint": null, "gamma_initializer": {"config": {}, "class_name": "Ones"}, "moving_variance_initializer": {"config": {}, "class_name": "Ones"}}, "inbound_nodes": [[["res4e_branch2c", 0, 0, {}]]], "class_name": "BatchNormalization"}, {"name": "add_156", "config": {"name": "add_156", "trainable": true}, "inbound_nodes": [[["bn4e_branch2c", 0, 0, {}], ["activation_515", 0, 0, {}]]], "class_name": "Add"}, {"name": "activation_518", "config": {"name": "activation_518", "activation": "relu", "trainable": true}, "inbound_nodes": [[["add_156", 0, 0, {}]]], "class_name": "Activation"}, {"name": "res4f_branch2a", "config": {"filters": 256, "kernel_size": [1, 1], "trainable": true, "data_format": "channels_last", "dilation_rate": [1, 1], "bias_constraint": null, "activation": "linear", "strides": [1, 1], "bias_initializer": {"config": {"seed": null, "mode": "fan_avg", "scale": 1.0, "distribution": "uniform"}, "class_name": "VarianceScaling"}, "kernel_constraint": null, "kernel_initializer": {"config": {"seed": null, "mode": "fan_avg", "scale": 1.0, "distribution": "uniform"}, "class_name": "VarianceScaling"}, "padding": "valid", "use_bias": true, "name": "res4f_branch2a", "bias_regularizer": null, "kernel_regularizer": null, "activity_regularizer": null}, "inbound_nodes": [[["activation_518", 0, 0, {}]]], "class_name": "Conv2D"}, {"name": "bn4f_branch2a", "config": {"momentum": 0.99, "gamma_constraint": null, "trainable": true, "beta_initializer": {"config": {}, "class_name": "Zeros"}, "axis": 3, "center": true, "beta_regularizer": null, "epsilon": 0.001, "scale": true, "moving_mean_initializer": {"config": {}, "class_name": "Zeros"}, "gamma_regularizer": null, "name": "bn4f_branch2a", "beta_constraint": null, "gamma_initializer": {"config": {}, "class_name": "Ones"}, "moving_variance_initializer": {"config": {}, "class_name": "Ones"}}, "inbound_nodes": [[["res4f_branch2a", 0, 0, {}]]], "class_name": "BatchNormalization"}, {"name": "activation_519", "config": {"name": "activation_519", "activation": "relu", "trainable": true}, "inbound_nodes": [[["bn4f_branch2a", 0, 0, {}]]], "class_name": "Activation"}, {"name": "res4f_branch2b", "config": {"filters": 256, "kernel_size": [3, 3], "trainable": true, "data_format": "channels_last", "dilation_rate": [1, 1], "bias_constraint": null, "activation": "linear", "strides": [1, 1], "bias_initializer": {"config": {"seed": null, "mode": "fan_avg", "scale": 1.0, "distribution": "uniform"}, "class_name": "VarianceScaling"}, "kernel_constraint": null, "kernel_initializer": {"config": {"seed": null, "mode": "fan_avg", "scale": 1.0, "distribution": "uniform"}, "class_name": "VarianceScaling"}, "padding": "same", "use_bias": true, "name": "res4f_branch2b", "bias_regularizer": null, "kernel_regularizer": null, "activity_regularizer": null}, "inbound_nodes": [[["activation_519", 0, 0, {}]]], "class_name": "Conv2D"}, {"name": "bn4f_branch2b", "config": {"momentum": 0.99, "gamma_constraint": null, "trainable": true, "beta_initializer": {"config": {}, "class_name": "Zeros"}, "axis": 3, "center": true, "beta_regularizer": null, "epsilon": 0.001, "scale": true, "moving_mean_initializer": {"config": {}, "class_name": "Zeros"}, "gamma_regularizer": null, "name": "bn4f_branch2b", "beta_constraint": null, "gamma_initializer": {"config": {}, "class_name": "Ones"}, "moving_variance_initializer": {"config": {}, "class_name": "Ones"}}, "inbound_nodes": [[["res4f_branch2b", 0, 0, {}]]], "class_name": "BatchNormalization"}, {"name": "activation_520", "config": {"name": "activation_520", "activation": "relu", "trainable": true}, "inbound_nodes": [[["bn4f_branch2b", 0, 0, {}]]], "class_name": "Activation"}, {"name": "res4f_branch2c", "config": {"filters": 1024, "kernel_size": [1, 1], "trainable": true, "data_format": "channels_last", "dilation_rate": [1, 1], "bias_constraint": null, "activation": "linear", "strides": [1, 1], "bias_initializer": {"config": {"seed": null, "mode": "fan_avg", "scale": 1.0, "distribution": "uniform"}, "class_name": "VarianceScaling"}, "kernel_constraint": null, "kernel_initializer": {"config": {"seed": null, "mode": "fan_avg", "scale": 1.0, "distribution": "uniform"}, "class_name": "VarianceScaling"}, "padding": "valid", "use_bias": true, "name": "res4f_branch2c", "bias_regularizer": null, "kernel_regularizer": null, "activity_regularizer": null}, "inbound_nodes": [[["activation_520", 0, 0, {}]]], "class_name": "Conv2D"}, {"name": "bn4f_branch2c", "config": {"momentum": 0.99, "gamma_constraint": null, "trainable": true, "beta_initializer": {"config": {}, "class_name": "Zeros"}, "axis": 3, "center": true, "beta_regularizer": null, "epsilon": 0.001, "scale": true, "moving_mean_initializer": {"config": {}, "class_name": "Zeros"}, "gamma_regularizer": null, "name": "bn4f_branch2c", "beta_constraint": null, "gamma_initializer": {"config": {}, "class_name": "Ones"}, "moving_variance_initializer": {"config": {}, "class_name": "Ones"}}, "inbound_nodes": [[["res4f_branch2c", 0, 0, {}]]], "class_name": "BatchNormalization"}, {"name": "add_157", "config": {"name": "add_157", "trainable": true}, "inbound_nodes": [[["bn4f_branch2c", 0, 0, {}], ["activation_518", 0, 0, {}]]], "class_name": "Add"}, {"name": "activation_521", "config": {"name": "activation_521", "activation": "relu", "trainable": true}, "inbound_nodes": [[["add_157", 0, 0, {}]]], "class_name": "Activation"}, {"name": "res5a_branch2a", "config": {"filters": 512, "kernel_size": [1, 1], "trainable": true, "data_format": "channels_last", "dilation_rate": [1, 1], "bias_constraint": null, "activation": "linear", "strides": [2, 2], "bias_initializer": {"config": {"seed": null, "mode": "fan_avg", "scale": 1.0, "distribution": "uniform"}, "class_name": "VarianceScaling"}, "kernel_constraint": null, "kernel_initializer": {"config": {"seed": null, "mode": "fan_avg", "scale": 1.0, "distribution": "uniform"}, "class_name": "VarianceScaling"}, "padding": "valid", "use_bias": true, "name": "res5a_branch2a", "bias_regularizer": null, "kernel_regularizer": null, "activity_regularizer": null}, "inbound_nodes": [[["activation_521", 0, 0, {}]]], "class_name": "Conv2D"}, {"name": "bn5a_branch2a", "config": {"momentum": 0.99, "gamma_constraint": null, "trainable": true, "beta_initializer": {"config": {}, "class_name": "Zeros"}, "axis": 3, "center": true, "beta_regularizer": null, "epsilon": 0.001, "scale": true, "moving_mean_initializer": {"config": {}, "class_name": "Zeros"}, "gamma_regularizer": null, "name": "bn5a_branch2a", "beta_constraint": null, "gamma_initializer": {"config": {}, "class_name": "Ones"}, "moving_variance_initializer": {"config": {}, "class_name": "Ones"}}, "inbound_nodes": [[["res5a_branch2a", 0, 0, {}]]], "class_name": "BatchNormalization"}, {"name": "activation_522", "config": {"name": "activation_522", "activation": "relu", "trainable": true}, "inbound_nodes": [[["bn5a_branch2a", 0, 0, {}]]], "class_name": "Activation"}, {"name": "res5a_branch2b", "config": {"filters": 512, "kernel_size": [3, 3], "trainable": true, "data_format": "channels_last", "dilation_rate": [1, 1], "bias_constraint": null, "activation": "linear", "strides": [1, 1], "bias_initializer": {"config": {"seed": null, "mode": "fan_avg", "scale": 1.0, "distribution": "uniform"}, "class_name": "VarianceScaling"}, "kernel_constraint": null, "kernel_initializer": {"config": {"seed": null, "mode": "fan_avg", "scale": 1.0, "distribution": "uniform"}, "class_name": "VarianceScaling"}, "padding": "same", "use_bias": true, "name": "res5a_branch2b", "bias_regularizer": null, "kernel_regularizer": null, "activity_regularizer": null}, "inbound_nodes": [[["activation_522", 0, 0, {}]]], "class_name": "Conv2D"}, {"name": "bn5a_branch2b", "config": {"momentum": 0.99, "gamma_constraint": null, "trainable": true, "beta_initializer": {"config": {}, "class_name": "Zeros"}, "axis": 3, "center": true, "beta_regularizer": null, "epsilon": 0.001, "scale": true, "moving_mean_initializer": {"config": {}, "class_name": "Zeros"}, "gamma_regularizer": null, "name": "bn5a_branch2b", "beta_constraint": null, "gamma_initializer": {"config": {}, "class_name": "Ones"}, "moving_variance_initializer": {"config": {}, "class_name": "Ones"}}, "inbound_nodes": [[["res5a_branch2b", 0, 0, {}]]], "class_name": "BatchNormalization"}, {"name": "activation_523", "config": {"name": "activation_523", "activation": "relu", "trainable": true}, "inbound_nodes": [[["bn5a_branch2b", 0, 0, {}]]], "class_name": "Activation"}, {"name": "res5a_branch2c", "config": {"filters": 2048, "kernel_size": [1, 1], "trainable": true, "data_format": "channels_last", "dilation_rate": [1, 1], "bias_constraint": null, "activation": "linear", "strides": [1, 1], "bias_initializer": {"config": {"seed": null, "mode": "fan_avg", "scale": 1.0, "distribution": "uniform"}, "class_name": "VarianceScaling"}, "kernel_constraint": null, "kernel_initializer": {"config": {"seed": null, "mode": "fan_avg", "scale": 1.0, "distribution": "uniform"}, "class_name": "VarianceScaling"}, "padding": "valid", "use_bias": true, "name": "res5a_branch2c", "bias_regularizer": null, "kernel_regularizer": null, "activity_regularizer": null}, "inbound_nodes": [[["activation_523", 0, 0, {}]]], "class_name": "Conv2D"}, {"name": "res5a_branch1", "config": {"filters": 2048, "kernel_size": [1, 1], "trainable": true, "data_format": "channels_last", "dilation_rate": [1, 1], "bias_constraint": null, "activation": "linear", "strides": [2, 2], "bias_initializer": {"config": {"seed": null, "mode": "fan_avg", "scale": 1.0, "distribution": "uniform"}, "class_name": "VarianceScaling"}, "kernel_constraint": null, "kernel_initializer": {"config": {"seed": null, "mode": "fan_avg", "scale": 1.0, "distribution": "uniform"}, "class_name": "VarianceScaling"}, "padding": "valid", "use_bias": true, "name": "res5a_branch1", "bias_regularizer": null, "kernel_regularizer": null, "activity_regularizer": null}, "inbound_nodes": [[["activation_521", 0, 0, {}]]], "class_name": "Conv2D"}, {"name": "bn5a_branch2c", "config": {"momentum": 0.99, "gamma_constraint": null, "trainable": true, "beta_initializer": {"config": {}, "class_name": "Zeros"}, "axis": 3, "center": true, "beta_regularizer": null, "epsilon": 0.001, "scale": true, "moving_mean_initializer": {"config": {}, "class_name": "Zeros"}, "gamma_regularizer": null, "name": "bn5a_branch2c", "beta_constraint": null, "gamma_initializer": {"config": {}, "class_name": "Ones"}, "moving_variance_initializer": {"config": {}, "class_name": "Ones"}}, "inbound_nodes": [[["res5a_branch2c", 0, 0, {}]]], "class_name": "BatchNormalization"}, {"name": "bn5a_branch1", "config": {"momentum": 0.99, "gamma_constraint": null, "trainable": true, "beta_initializer": {"config": {}, "class_name": "Zeros"}, "axis": 3, "center": true, "beta_regularizer": null, "epsilon": 0.001, "scale": true, "moving_mean_initializer": {"config": {}, "class_name": "Zeros"}, "gamma_regularizer": null, "name": "bn5a_branch1", "beta_constraint": null, "gamma_initializer": {"config": {}, "class_name": "Ones"}, "moving_variance_initializer": {"config": {}, "class_name": "Ones"}}, "inbound_nodes": [[["res5a_branch1", 0, 0, {}]]], "class_name": "BatchNormalization"}, {"name": "add_158", "config": {"name": "add_158", "trainable": true}, "inbound_nodes": [[["bn5a_branch2c", 0, 0, {}], ["bn5a_branch1", 0, 0, {}]]], "class_name": "Add"}, {"name": "activation_524", "config": {"name": "activation_524", "activation": "relu", "trainable": true}, "inbound_nodes": [[["add_158", 0, 0, {}]]], "class_name": "Activation"}, {"name": "res5b_branch2a", "config": {"filters": 512, "kernel_size": [1, 1], "trainable": true, "data_format": "channels_last", "dilation_rate": [1, 1], "bias_constraint": null, "activation": "linear", "strides": [1, 1], "bias_initializer": {"config": {"seed": null, "mode": "fan_avg", "scale": 1.0, "distribution": "uniform"}, "class_name": "VarianceScaling"}, "kernel_constraint": null, "kernel_initializer": {"config": {"seed": null, "mode": "fan_avg", "scale": 1.0, "distribution": "uniform"}, "class_name": "VarianceScaling"}, "padding": "valid", "use_bias": true, "name": "res5b_branch2a", "bias_regularizer": null, "kernel_regularizer": null, "activity_regularizer": null}, "inbound_nodes": [[["activation_524", 0, 0, {}]]], "class_name": "Conv2D"}, {"name": "bn5b_branch2a", "config": {"momentum": 0.99, "gamma_constraint": null, "trainable": true, "beta_initializer": {"config": {}, "class_name": "Zeros"}, "axis": 3, "center": true, "beta_regularizer": null, "epsilon": 0.001, "scale": true, "moving_mean_initializer": {"config": {}, "class_name": "Zeros"}, "gamma_regularizer": null, "name": "bn5b_branch2a", "beta_constraint": null, "gamma_initializer": {"config": {}, "class_name": "Ones"}, "moving_variance_initializer": {"config": {}, "class_name": "Ones"}}, "inbound_nodes": [[["res5b_branch2a", 0, 0, {}]]], "class_name": "BatchNormalization"}, {"name": "activation_525", "config": {"name": "activation_525", "activation": "relu", "trainable": true}, "inbound_nodes": [[["bn5b_branch2a", 0, 0, {}]]], "class_name": "Activation"}, {"name": "res5b_branch2b", "config": {"filters": 512, "kernel_size": [3, 3], "trainable": true, "data_format": "channels_last", "dilation_rate": [1, 1], "bias_constraint": null, "activation": "linear", "strides": [1, 1], "bias_initializer": {"config": {"seed": null, "mode": "fan_avg", "scale": 1.0, "distribution": "uniform"}, "class_name": "VarianceScaling"}, "kernel_constraint": null, "kernel_initializer": {"config": {"seed": null, "mode": "fan_avg", "scale": 1.0, "distribution": "uniform"}, "class_name": "VarianceScaling"}, "padding": "same", "use_bias": true, "name": "res5b_branch2b", "bias_regularizer": null, "kernel_regularizer": null, "activity_regularizer": null}, "inbound_nodes": [[["activation_525", 0, 0, {}]]], "class_name": "Conv2D"}, {"name": "bn5b_branch2b", "config": {"momentum": 0.99, "gamma_constraint": null, "trainable": true, "beta_initializer": {"config": {}, "class_name": "Zeros"}, "axis": 3, "center": true, "beta_regularizer": null, "epsilon": 0.001, "scale": true, "moving_mean_initializer": {"config": {}, "class_name": "Zeros"}, "gamma_regularizer": null, "name": "bn5b_branch2b", "beta_constraint": null, "gamma_initializer": {"config": {}, "class_name": "Ones"}, "moving_variance_initializer": {"config": {}, "class_name": "Ones"}}, "inbound_nodes": [[["res5b_branch2b", 0, 0, {}]]], "class_name": "BatchNormalization"}, {"name": "activation_526", "config": {"name": "activation_526", "activation": "relu", "trainable": true}, "inbound_nodes": [[["bn5b_branch2b", 0, 0, {}]]], "class_name": "Activation"}, {"name": "res5b_branch2c", "config": {"filters": 2048, "kernel_size": [1, 1], "trainable": true, "data_format": "channels_last", "dilation_rate": [1, 1], "bias_constraint": null, "activation": "linear", "strides": [1, 1], "bias_initializer": {"config": {"seed": null, "mode": "fan_avg", "scale": 1.0, "distribution": "uniform"}, "class_name": "VarianceScaling"}, "kernel_constraint": null, "kernel_initializer": {"config": {"seed": null, "mode": "fan_avg", "scale": 1.0, "distribution": "uniform"}, "class_name": "VarianceScaling"}, "padding": "valid", "use_bias": true, "name": "res5b_branch2c", "bias_regularizer": null, "kernel_regularizer": null, "activity_regularizer": null}, "inbound_nodes": [[["activation_526", 0, 0, {}]]], "class_name": "Conv2D"}, {"name": "bn5b_branch2c", "config": {"momentum": 0.99, "gamma_constraint": null, "trainable": true, "beta_initializer": {"config": {}, "class_name": "Zeros"}, "axis": 3, "center": true, "beta_regularizer": null, "epsilon": 0.001, "scale": true, "moving_mean_initializer": {"config": {}, "class_name": "Zeros"}, "gamma_regularizer": null, "name": "bn5b_branch2c", "beta_constraint": null, "gamma_initializer": {"config": {}, "class_name": "Ones"}, "moving_variance_initializer": {"config": {}, "class_name": "Ones"}}, "inbound_nodes": [[["res5b_branch2c", 0, 0, {}]]], "class_name": "BatchNormalization"}, {"name": "add_159", "config": {"name": "add_159", "trainable": true}, "inbound_nodes": [[["bn5b_branch2c", 0, 0, {}], ["activation_524", 0, 0, {}]]], "class_name": "Add"}, {"name": "activation_527", "config": {"name": "activation_527", "activation": "relu", "trainable": true}, "inbound_nodes": [[["add_159", 0, 0, {}]]], "class_name": "Activation"}, {"name": "res5c_branch2a", "config": {"filters": 512, "kernel_size": [1, 1], "trainable": true, "data_format": "channels_last", "dilation_rate": [1, 1], "bias_constraint": null, "activation": "linear", "strides": [1, 1], "bias_initializer": {"config": {"seed": null, "mode": "fan_avg", "scale": 1.0, "distribution": "uniform"}, "class_name": "VarianceScaling"}, "kernel_constraint": null, "kernel_initializer": {"config": {"seed": null, "mode": "fan_avg", "scale": 1.0, "distribution": "uniform"}, "class_name": "VarianceScaling"}, "padding": "valid", "use_bias": true, "name": "res5c_branch2a", "bias_regularizer": null, "kernel_regularizer": null, "activity_regularizer": null}, "inbound_nodes": [[["activation_527", 0, 0, {}]]], "class_name": "Conv2D"}, {"name": "bn5c_branch2a", "config": {"momentum": 0.99, "gamma_constraint": null, "trainable": true, "beta_initializer": {"config": {}, "class_name": "Zeros"}, "axis": 3, "center": true, "beta_regularizer": null, "epsilon": 0.001, "scale": true, "moving_mean_initializer": {"config": {}, "class_name": "Zeros"}, "gamma_regularizer": null, "name": "bn5c_branch2a", "beta_constraint": null, "gamma_initializer": {"config": {}, "class_name": "Ones"}, "moving_variance_initializer": {"config": {}, "class_name": "Ones"}}, "inbound_nodes": [[["res5c_branch2a", 0, 0, {}]]], "class_name": "BatchNormalization"}, {"name": "activation_528", "config": {"name": "activation_528", "activation": "relu", "trainable": true}, "inbound_nodes": [[["bn5c_branch2a", 0, 0, {}]]], "class_name": "Activation"}, {"name": "res5c_branch2b", "config": {"filters": 512, "kernel_size": [3, 3], "trainable": true, "data_format": "channels_last", "dilation_rate": [1, 1], "bias_constraint": null, "activation": "linear", "strides": [1, 1], "bias_initializer": {"config": {"seed": null, "mode": "fan_avg", "scale": 1.0, "distribution": "uniform"}, "class_name": "VarianceScaling"}, "kernel_constraint": null, "kernel_initializer": {"config": {"seed": null, "mode": "fan_avg", "scale": 1.0, "distribution": "uniform"}, "class_name": "VarianceScaling"}, "padding": "same", "use_bias": true, "name": "res5c_branch2b", "bias_regularizer": null, "kernel_regularizer": null, "activity_regularizer": null}, "inbound_nodes": [[["activation_528", 0, 0, {}]]], "class_name": "Conv2D"}, {"name": "bn5c_branch2b", "config": {"momentum": 0.99, "gamma_constraint": null, "trainable": true, "beta_initializer": {"config": {}, "class_name": "Zeros"}, "axis": 3, "center": true, "beta_regularizer": null, "epsilon": 0.001, "scale": true, "moving_mean_initializer": {"config": {}, "class_name": "Zeros"}, "gamma_regularizer": null, "name": "bn5c_branch2b", "beta_constraint": null, "gamma_initializer": {"config": {}, "class_name": "Ones"}, "moving_variance_initializer": {"config": {}, "class_name": "Ones"}}, "inbound_nodes": [[["res5c_branch2b", 0, 0, {}]]], "class_name": "BatchNormalization"}, {"name": "activation_529", "config": {"name": "activation_529", "activation": "relu", "trainable": true}, "inbound_nodes": [[["bn5c_branch2b", 0, 0, {}]]], "class_name": "Activation"}, {"name": "res5c_branch2c", "config": {"filters": 2048, "kernel_size": [1, 1], "trainable": true, "data_format": "channels_last", "dilation_rate": [1, 1], "bias_constraint": null, "activation": "linear", "strides": [1, 1], "bias_initializer": {"config": {"seed": null, "mode": "fan_avg", "scale": 1.0, "distribution": "uniform"}, "class_name": "VarianceScaling"}, "kernel_constraint": null, "kernel_initializer": {"config": {"seed": null, "mode": "fan_avg", "scale": 1.0, "distribution": "uniform"}, "class_name": "VarianceScaling"}, "padding": "valid", "use_bias": true, "name": "res5c_branch2c", "bias_regularizer": null, "kernel_regularizer": null, "activity_regularizer": null}, "inbound_nodes": [[["activation_529", 0, 0, {}]]], "class_name": "Conv2D"}, {"name": "bn5c_branch2c", "config": {"momentum": 0.99, "gamma_constraint": null, "trainable": true, "beta_initializer": {"config": {}, "class_name": "Zeros"}, "axis": 3, "center": true, "beta_regularizer": null, "epsilon": 0.001, "scale": true, "moving_mean_initializer": {"config": {}, "class_name": "Zeros"}, "gamma_regularizer": null, "name": "bn5c_branch2c", "beta_constraint": null, "gamma_initializer": {"config": {}, "class_name": "Ones"}, "moving_variance_initializer": {"config": {}, "class_name": "Ones"}}, "inbound_nodes": [[["res5c_branch2c", 0, 0, {}]]], "class_name": "BatchNormalization"}, {"name": "add_160", "config": {"name": "add_160", "trainable": true}, "inbound_nodes": [[["bn5c_branch2c", 0, 0, {}], ["activation_527", 0, 0, {}]]], "class_name": "Add"}, {"name": "activation_530", "config": {"name": "activation_530", "activation": "relu", "trainable": true}, "inbound_nodes": [[["add_160", 0, 0, {}]]], "class_name": "Activation"}, {"name": "avg_pool", "config": {"pool_size": [7, 7], "data_format": "channels_last", "padding": "valid", "trainable": true, "name": "avg_pool", "strides": [7, 7]}, "inbound_nodes": [[["activation_530", 0, 0, {}]]], "class_name": "AveragePooling2D"}, {"name": "flatten_2", "config": {"name": "flatten_2", "trainable": true}, "inbound_nodes": [[["avg_pool", 0, 0, {}]]], "class_name": "Flatten"}, {"name": "fc1000", "config": {"units": 1000, "trainable": true, "bias_constraint": null, "activation": "softmax", "bias_initializer": {"config": {"seed": null, "mode": "fan_avg", "scale": 1.0, "distribution": "uniform"}, "class_name": "VarianceScaling"}, "kernel_regularizer": null, "kernel_constraint": null, "kernel_initializer": {"config": {"seed": null, "mode": "fan_avg", "scale": 1.0, "distribution": "uniform"}, "class_name": "VarianceScaling"}, "bias_regularizer": null, "use_bias": true, "name": "fc1000", "activity_regularizer": null}, "inbound_nodes": [[["flatten_2", 0, 0, {}]]], "class_name": "Dense"}], "output_layers": [["fc1000", 0, 0]], "input_layers": [["input_10", 0, 0]]}, "class_name": "Model", "backend": "tensorflow"}